mmjc_env/envs/steering_policy/maz-001-rev3-right.pt (torch, 119338 bytes, 12 tensors)

actor_logstd f4 [1, 8]
0	0x3f7627c6	0.9615444
1	0x3fa102ba	1.2578957
2	0x3faee6f3	1.366423
3	0x3f4a31ea	0.7898241
4	0x3fad3cbf	1.3534163
5	0x3f912226	1.1338546
6	0x3fbbb7ab	1.4665426
7	0x3f9e9097	1.2387875

critic.0.weight f4 [64, 153]
0	0xbe02ff58	-0.12792718
1	0x3ddb79d0	0.10716593
2	0x3cc5b947	0.024136199
3	0xbda5bbad	-0.08092437
4	0x3c510628	0.012757815
5	0x3d2e1e63	0.042509448
6	0xbd7f0484	-0.062260166
7	0xbd87681f	-0.066116564
8	0xbbdebe61	-0.0067975973
9	0xbe1abc1c	-0.1511082
10	0x3d351989	0.044213805
11	0x3e212101	0.15735246
12	0x3e39ace3	0.18132357
13	0xbc47cd7f	-0.01219499
14	0xbe244bdb	-0.16044562
15	0xbd04a42e	-0.032383136
16	0xbcdd4d2c	-0.027014337
17	0xbd181fa7	-0.03713956
18	0x3e25ae08	0.16179669
19	0x3d38a0ff	0.045075413
20	0xbc9c07fb	-0.019046774
21	0xbe0d270e	-0.1378443
22	0x3e262cd8	0.16228044
23	0x3d885ef5	0.066587366
24	0x3e247c7e	0.16063115
25	0x3c47be8b	0.012191425
26	0xbe475c01	-0.1946869
27	0xbcc5347f	-0.024072884
28	0x3de242c3	0.1104789
29	0xbd876300	-0.066106796
30	0xbe153c29	-0.1457373
31	0xbd3c04b9	-0.04590294
32	0x3e1430dc	0.14471763
33	0xbdc438a8	-0.09581119
34	0x3e59ac7d	0.21257205
35	0xbe1992ed	-0.14997454
36	0xbc1cae1b	-0.009562994
37	0xbd215e08	-0.039396316
38	0x3e73e354	0.23817188
39	0x3e86a1ae	0.26295227
40	0x3e62bea9	0.22143044
41	0xbe30d8c2	-0.17270187
42	0xbe1dbdb1	-0.15404393
43	0xbbe22b9c	-0.0069021713
44	0xbd443146	-0.047898553
45	0x3e59932e	0.21247551
46	0xbd81cf20	-0.06338334
47	0x3c9c64bf	0.019091008
48	0x3c179e2a	0.009254018
49	0xbd2f2125	-0.04275622
50	0xbdde903c	-0.10867354
51	0x3d80da75	0.06291667
52	0x3e043abb	0.12913029
53	0xbdf6cc0c	-0.120506376
54	0x3da16804	0.078811675
55	0xbe5d8064	-0.21631008
56	0xbdffade4	-0.12484339
57	0x3d113a5d	0.03545605
58	0x3e009dcb	0.12560193
59	0xbcb79e6a	-0.022414405
60	0x3d41ef1f	0.047347184
61	0xbe25c807	-0.16189586
62	0x3e1f776f	0.15572904
63	0xbe0ae91a	-0.13565484
64	0xbdfa0d24	-0.122095376
65	0xbd3c4053	-0.04595978
66	0xbbffbb61	-0.0078043197
67	0x3ce0fbb0	0.027463764
68	0xbd65efcd	-0.056136895
69	0xbc5917e0	-0.013250321
70	0x3dd98e97	0.106229
71	0x3d8a1186	0.067416236
72	0xbca9801a	-0.020690966
73	0xbc4c188b	-0.012457023
74	0xbd448adf	-0.047984
75	0xbd852b9d	-0.06502459
76	0x3ea62cc3	0.32456025
77	0xbddc639e	-0.10761188
78	0xbe13860d	-0.14406605
79	0x3e07e08a	0.13269249
80	0xbce586d5	-0.028018394
81	0xbe0c6b37	-0.13712774
82	0x3d76398c	0.060113475
83	0x3e410fc1	0.18853666
84	0xbceef5e8	-0.029169992
85	0x3e272eb6	0.16326413
86	0xbdba86cd	-0.091077425
87	0x3d71ac01	0.059001926
88	0x3cac9fa9	0.021072226
89	0x3d6582f6	0.056033097
90	0xbe861557	-0.26188156
91	0xbe5a4afc	-0.21317667
92	0xbad9d405	-0.0016618973
93	0x3e882209	0.26588467
94	0x3e0eb855	0.13937505
95	0x3c497312	0.012295501
96	0xbe02f053	-0.12786989
97	0xbd760874	-0.060066655
98	0xbe39355d	-0.18086763
99	0xbd4dafbd	-0.050216425
100	0xbc606fc7	-0.013698525
101	0x3d8f8123	0.07007053
102	0x3e195e8c	0.14977473
103	0xbf1c6611	-0.6109324
104	0xbd09d6a7	-0.033651974
105	0x3e145cb2	0.14488485
106	0xbe83b843	-0.25726518
107	0x3d799bb8	0.06093952
108	0xbdd5ee2b	-0.104458176
109	0x3c883ac0	0.016629577
110	0xbe5c8241	-0.21534063
111	0x3e87d34c	0.26528394
112	0xbd1898e9	-0.0372552
113	0xbc1d6a54	-0.00960787
114	0xbd46cdf1	-0.048536245
115	0xbd4ff5a5	-0.050771374
116	0x3ea6955f	0.32535836
117	0xbe1ed7d6	-0.15512022
118	0x3dcd0e11	0.100124486
119	0xbce3c701	-0.027804853
120	0xbca61d41	-0.020277621
121	0xbbbc340d	-0.0057435096
122	0x3e09c51b	0.13454096
123	0x3cbcf6d2	0.023066912
124	0xbdbd5b5a	-0.092459396
125	0x3e8f1b1a	0.27950364
126	0x3f044285	0.51664
127	0xbb33dc75	-0.0027444635
128	0xbc8d1cb7	-0.017225606
129	0xbdd50360	-0.10401034
130	0x3dbad951	0.09123481
131	0xbcb35302	-0.021890167
132	0x3dc62dd6	0.09676711
133	0x3b542f3a	0.0032376782
134	0x3db4580e	0.088058576
135	0x3e876d08	0.26450372
136	0xbe980a8e	-0.29695553
137	0x3e1dacbf	0.15397929
138	0x3c4a377b	0.012342329
139	0xbdd62f19	-0.10458202
140	0xbd586396	-0.052829348
141	0x3dc4d0e6	0.09610157
142	0x3a91c0c1	0.0011120067
143	0xbd8e6b0d	-0.06954012
144	0xbd85b111	-0.06527913
145	0xbd086c23	-0.033306252
146	0x3e140fec	0.14459199
147	0xbd99e8a5	-0.075150765
148	0x3eda3bb8	0.42623687
149	0x3d3b2d43	0.04569746
150	0xbe6bf42a	-0.2304236
151	0x3cb195ce	0.021677878
152	0x3db17fbe	0.08666943
153	0xbe9fbf99	-0.31200865
154	0x3e0abb29	0.13547958
155	0xbe2b32ce	-0.16718599
156	0x3d81fe6a	0.06347354
157	0x3da43028	0.080169976
158	0x3ddc95d4	0.10770765
159	0xbb8804a6	-0.0041509448
160	0xbca8f3a0	-0.020623982
161	0xbcc26564	-0.023729987
162	0x3c082aa2	0.008310946
163	0xbcd66c9b	-0.026174834
164	0xbde7463d	-0.11292694
165	0x3dbc6fec	0.09201035
166	0x3cffa932	0.031208608
167	0xbd010af0	-0.03150457
168	0xbe6b7844	-0.22995096
169	0xbcab485b	-0.020908525
170	0xbea5c4b8	-0.32376647
171	0xbba8ded3	-0.005153516
172	0x3e4570a5	0.19281252
173	0xbd511bce	-0.051051907
174	0xbe3edf80	-0.18639946
175	0xbd5404a0	-0.051762223
176	0x3d8661aa	0.06561597
177	0x3c660a36	0.01404052
178	0x3da65061	0.081208
179	0x3dd6638d	0.104682066
180	0xbdbb605f	-0.09149241
181	0xbe0aaf8a	-0.13543525
182	0xbca5e148	-0.020249024
183	0x3e1c96ac	0.15291852
184	0x3d5971d1	0.05308706
185	0xbd55d5b3	-0.052205753
186	0x3cea1a52	0.028577004
187	0x3e0cecde	0.13762233
188	0x3eba4e73	0.36387977
189	0x3d494a35	0.049143035
190	0xbddd5e4a	-0.10809
191	0xbd1bb770	-0.038016737
192	0x3de45d44	0.111506015
193	0xbcf99c32	-0.030469988
194	0x3d01290f	0.031533297
195	0x3dedd064	0.11612013
196	0xbd04c941	-0.032418493
197	0xbe220f5f	-0.15826176
198	0xbc241d3c	-0.010016736
199	0x3da17768	0.07884103
200	0xbc99b3b8	-0.018762454
201	0xbe2a610d	-0.16638584
202	0xbba542ef	-0.0050433795
203	0xbdbac1da	-0.091190055
204	0x3e3f6ac4	0.18693072
205	0x3cf94023	0.03042609
206	0xbd9496d7	-0.07255333
207	0xbd65cb62	-0.056102164
208	0x3d30f2a8	0.043200165
209	0x3c11e8f3	0.008905637
210	0xbe38f677	-0.18062769
211	0xbc9fd761	-0.01951188
212	0xbee4a668	-0.44658208
213	0x3d9f33a3	0.07773521
214	0xbdbf7cb4	-0.09349957
215	0xbe12ad74	-0.1432398
216	0xbe36e0f4	-0.1785925
217	0xbe2f582c	-0.17123479
218	0x3e3c3b77	0.18382059
219	0xbd7dba01	-0.061944965
220	0xbca5ee5c	-0.02025526
221	0x3d97b922	0.07408358
222	0xbe04a88c	-0.1295492
223	0xbddb8633	-0.10718956
224	0xbb1182b4	-0.002220315
225	0x3d9ed2f2	0.077550784
226	0xbd27d478	-0.04097411
227	0xbbb1b862	-0.0054235915
228	0x3c212e90	0.0098377615
229	0xbd58aca7	-0.05289903
230	0xbd751ecd	-0.059843827
231	0x3df9f45a	0.122048095
232	0xbe20c586	-0.15700349
233	0xbd88d2ae	-0.06680809
234	0xbe21199c	-0.15732425
235	0xbc1684d8	-0.009186946
236	0xbe2c28a5	-0.1681238
237	0xbd9b3565	-0.075785436
238	0xbbccb268	-0.0062468536
239	0x3dcc1c07	0.09966283
240	0x3d9fc6b8	0.078015745
241	0xbe653a2a	-0.22385469
242	0x3de0022b	0.109379135
243	0xbd39a926	-0.04532733
244	0x3be60b60	0.007020399
245	0xbd243304	-0.040087715
246	0x3d1b21af	0.03787392
247	0x3e05950d	0.1304514
248	0xbd9c2b0f	-0.076254
249	0xbd9b9535	-0.07596818
250	0xbe3b424f	-0.18287013
251	0x3e000c49	0.12504686
252	0x3ec4fb8e	0.3847317
253	0xbdaa634c	-0.083197206
254	0xbeb681aa	-0.356458
255	0x3db22767	0.08698922

critic.0.bias f4 [64]
0	0xbfa0d183	-1.2563938
1	0xbef96489	-0.48709515
2	0xbe89c073	-0.2690464
3	0x3e8dee4d	0.27720872
4	0x3e11aec6	0.14226827
5	0xbf240c73	-0.64081496
6	0xbd0c7899	-0.0342947
7	0xbfa5b0a3	-1.294453
8	0x3f212442	0.6294595
9	0x3f15a926	0.58461225
10	0xbee6e84b	-0.450991
11	0x3e78ce54	0.24297458
12	0xbf279a39	-0.654697
13	0xbea51e5e	-0.3224973
14	0xbc927cda	-0.0178818
15	0xbd1ce7a6	-0.038306855
16	0x3ed26a55	0.4109675
17	0xbf551a86	-0.83243597
18	0x3dd60294	0.104497105
19	0x3f24de4e	0.6440171
20	0xbf059e4c	-0.52194667
21	0xbf8c5e09	-1.0966197
22	0x3eaa392b	0.3324674
23	0x3f4d2b51	0.8014422
24	0xbda1e373	-0.079047106
25	0xbe487d42	-0.19579032
26	0x3f61ddfd	0.8822935
27	0x3edd94e0	0.43277645
28	0xbf4b6cac	-0.79462695
29	0x3d9cc1f7	0.07654183
30	0x3f148be9	0.58025986
31	0xbf9676f8	-1.1755056
32	0xbf17d07e	-0.5930251
33	0xbf8677bd	-1.0505291
34	0x3d0cd33b	0.034381133
35	0x3ed561df	0.41676232
36	0x3f352f48	0.7077527
37	0x3c46f5d7	0.012143574
38	0xbf1d3000	-0.6140137
39	0xbf816a0b	-1.0110487
40	0x3f8f3267	1.1187257
41	0x3ecf92d8	0.4054172
42	0x3f15b0c6	0.5847286
43	0x3e53e615	0.20693238
44	0x3f54c643	0.83115023
45	0xbf731ebb	-0.94968766
46	0xbedfd1e4	-0.4371482
47	0x3f5f1a25	0.8714927
48	0xbed4c0a4	-0.41553223
49	0xbf278cfa	-0.6544949
50	0xbe7470dc	-0.23871177
51	0xbe8045d3	-0.25053272
52	0xbde4205f	-0.11138987
53	0xbedaaad5	-0.4270846
54	0x3da55d5e	0.08074449
55	0xbd995941	-0.07487727
56	0x3fabba6a	1.3416264
57	0xbf6ebc64	-0.9325621
58	0x3f4d6de6	0.80245817
59	0x3ed436d6	0.41448087
60	0xbf2c5968	-0.67323923
61	0xbe8dc9ac	-0.27692926
62	0x3f13ef1d	0.5778673
63	0xbe984155	-0.29737344

critic.2.weight f4 [64, 64]
0	0x3e91d813	0.28485164
1	0xbf00b50a	-0.50276244
2	0x3d9c9f32	0.076475516
3	0x3e626151	0.22107436
4	0x3e9c8b92	0.30575234
5	0xbe654033	-0.22387771
6	0xbd586b7f	-0.05283689
7	0x3ef42338	0.4768312
8	0xbe73abe9	-0.23796047
9	0xbd7c1dbb	-0.06155179
10	0xbeb0d4e1	-0.34537414
11	0x3ea74090	0.32666445
12	0x3db1fa99	0.08690376
13	0x3d211a68	0.039331824
14	0xbe8406c5	-0.25786415
15	0x3b87d14a	0.0041448222
16	0xbe4d3799	-0.2004074
17	0xbe9509e7	-0.29109117
18	0x3d76f123	0.06028856
19	0x3d54b961	0.051934604
20	0xbee0bcb9	-0.43893984
21	0x3d3598a3	0.04433502
22	0x3d66628b	0.05624632
23	0xbe4a771e	-0.19772002
24	0x3d902863	0.07038953
25	0xbd3e3c67	-0.046444323
26	0x3e9a03e0	0.3008108
27	0xbf074b80	-0.5284958
28	0x3b58183d	0.0032973432
29	0xbe875c40	-0.2643757
30	0xbe5280e5	-0.20556982
31	0xbe69d15c	-0.2283377
32	0x3e7d27f4	0.24722272
33	0x3e76ce42	0.24102119
34	0x3db85965	0.09001426
35	0xbd3df317	-0.046374407
36	0x3e3fc399	0.18726958
37	0x3d6b8ae3	0.0575055
38	0x3d8c3552	0.068461075
39	0x3e17cd3c	0.14824384
40	0xbe4ed08b	-0.2019674
41	0xbdc0d231	-0.09415091
42	0xbcf4ea74	-0.029896952
43	0x3e7a2ab1	0.24430348
44	0x3e56660e	0.20937368
45	0xbed1ea84	-0.40999234
46	0xbcd6a2b4	-0.02620063
47	0x3c833f85	0.0160215
48	0xbc512d14	-0.012767095
49	0x3e5cf48e	0.21577665
50	0xbe560cff	-0.20903395
51	0x3e7f6a3e	0.24942872
52	0xbddc118b	-0.107455336
53	0xbe6911b1	-0.22760655
54	0xbece2d3c	-0.40268886
55	0x3d53f157	0.05174383
56	0xbeacbd25	-0.33738056
57	0xbe98297f	-0.2971916
58	0xbd6f70a2	-0.058457024
59	0xbe05f536	-0.13081822
60	0x3e049304	0.12946707
61	0xbedde15c	-0.43335998
62	0x3e44d6cf	0.19222568
63	0x3da2db15	0.07951943
64	0xbe834db3	-0.25645217
65	0xbe6c0872	-0.23050097
66	0xbdd42147	-0.1035791
67	0xbe0db021	-0.13836719
68	0x3e80ebff	0.2518005
69	0xbe83f2f5	-0.257713
70	0xbcc81a77	-0.024426682
71	0x3db093fc	0.08621976
72	0x3e296816	0.16543612
73	0x3e701c29	0.23448242
74	0x3b9992cc	0.004686689
75	0x3e85e675	0.26152387
76	0xbc1d4e47	-0.009601182
77	0x3e2afde7	0.16698419
78	0xbd04dea1	-0.032438878
79	0x3eea60f9	0.4577711
80	0x3e3f4249	0.1867763
81	0x3dff47cb	0.12464865
82	0xbdb4a96f	-0.088213794
83	0x3ebe0522	0.3711329
84	0x3ea51592	0.3224302
85	0xbeb3278e	-0.34991115
86	0x3e3abbe4	0.18235737
87	0xbe844a6e	-0.25838035
88	0xbe7881c0	-0.24268246
89	0xbd43323f	-0.04765534
90	0x3dbfcdf9	0.09365458
91	0xbe5f90d1	-0.21832587
92	0xbec37666	-0.38176268
93	0xbe5cd89f	-0.2156701
94	0xbe02fffc	-0.12792963
95	0xbd393c82	-0.04522372
96	0xbd88846f	-0.06665885
97	0xbe8487a0	-0.25884724
98	0xbe43ae6b	-0.19109504
99	0xbe84119f	-0.25794694
100	0xbc6f39d2	-0.014601188
101	0xbdcfd7b2	-0.101485625
102	0xbea8050a	-0.32816344
103	0xbeab7072	-0.33484226
104	0x3ea78e42	0.32725722
105	0xbe0ae5ce	-0.13564226
106	0xbdd068f0	-0.10176265
107	0xbe0ac237	-0.1355065
108	0x3dcfc640	0.10145235
109	0xbe9a4435	-0.30130163
110	0x3da04050	0.07824767
111	0x3ce0822d	0.027405823
112	0xbe64d53b	-0.22346966
113	0x3c9e839b	0.019349864
114	0x3e8baa74	0.27278483
115	0x3ef9c546	0.4878332
116	0x3eb7c8fd	0.3589553
117	0x3d7ea0e2	0.06216515
118	0x3d1dc6a1	0.038519505
119	0xbdb83465	-0.089943685
120	0x3e7b43cf	0.24537586
121	0x3d4d3611	0.05010039
122	0x3e63f770	0.22262359
123	0xbdabb47e	-0.083840355
124	0xbe696c94	-0.22795326
125	0x3d516a32	0.051126666
126	0x3ef15c3c	0.47140682
127	0xbe3c9874	-0.18417531
128	0x3e90ffc5	0.28320137
129	0xbe620351	-0.22071578
130	0xbd7b93bf	-0.0614202
131	0xbdebc36f	-0.115118854
132	0x3e89c42d	0.26907483
133	0x3e9ff53b	0.31241783
134	0x3ecba7c9	0.39776447
135	0x3e3aefd1	0.18255545
136	0x3d4e06b5	0.050299365
137	0xbeeca3b6	-0.46218652
138	0xbeb7d6dc	-0.35906112
139	0xbe9adae4	-0.30245125
140	0xbca5ec57	-0.020254297
141	0x3dea9d8e	0.114558324
142	0xbe02d7c2	-0.12777618
143	0xbee31200	-0.4434967
144	0x3db1a6d5	0.08674399
145	0xbecc6836	-0.39923257
146	0xbd2feb74	-0.042949155
147	0xbcef8b3f	-0.029241202
148	0x3c430476	0.011902919
149	0x3ea8ad72	0.32944828
150	0xbdca2fdd	-0.098724104
151	0x3cef420f	0.029206304
152	0xbd0f55ab	-0.03499381
153	0xbe9d7d5c	-0.30759704
154	0xbef42ee2	-0.4769202
155	0xbd311c12	-0.04323966
156	0xbd21db70	-0.039515913
157	0xbe048c6b	-0.1294419
158	0xbe33a240	-0.17542362
159	0x3ed778d7	0.4208438
160	0x3dd5984e	0.104294404
161	0x3d0bbd2c	0.034115955
162	0x3e2310f5	0.15924437
163	0x3d2fc371	0.042910997
164	0x3ee5b74b	0.44866404
165	0x3e66eb48	0.2255069
166	0x3e833edf	0.25633904
167	0x3f217282	0.6306535
168	0xbc1fb485	-0.009747629
169	0x3cd289ef	0.025700537
170	0xbe93e72d	-0.2888731
171	0xbddcabcf	-0.107749574
172	0xbe966065	-0.29370418
173	0xbdfb3300	-0.12265587
174	0xbdae840d	-0.085212804
175	0x3ec378fe	0.38178247
176	0x3d85f4d3	0.06540837
177	0x3e4e9f9b	0.20178072
178	0x3e601824	0.21884209
179	0x3da63e84	0.08117393
180	0xbe265cde	-0.16246364
181	0x3df24123	0.1182883
182	0xbdadcdb8	-0.08486503
183	0xbe264dad	-0.16240568
184	0xbe34bd84	-0.1765042
185	0x3edaadb2	0.42710644
186	0xbf138978	-0.57631636
187	0xbe84e907	-0.25959036
188	0x3deb9808	0.11503607
189	0x3ecdcbff	0.401947
190	0x3e32147f	0.17390631
191	0xbc2b86e8	-0.010469176
192	0x3ea24518	0.3169334
193	0xbcfb3ba4	-0.030668087
194	0x3e7c5529	0.24641861
195	0x3e56af1f	0.20965241
196	0x3e64f394	0.22358543
197	0xbde7a707	-0.11311155
198	0x3e78804d	0.24267693
199	0x3ee4710d	0.446175
200	0xbe754bce	-0.23954698
201	0x3e9e99e8	0.30976796
202	0xbe42b62a	-0.19014803
203	0x3e41fdd9	0.18944491
204	0xbd36186d	-0.044456888
205	0x3e536d12	0.20647076
206	0x3dab84da	0.08374949
207	0x3e023ec0	0.1271925
208	0xbcdd8082	-0.027038816
209	0xbdd672c7	-0.10471111
210	0xbdb8a3ca	-0.09015615
211	0xbe24e9a8	-0.16104758
212	0xbe818c5e	-0.25302404
213	0x3e0c8454	0.13722354
214	0x3bcd998a	0.006274407
215	0xbeb82dd0	-0.35972452
216	0x3e1b0f63	0.15142588
217	0xbc82bd6c	-0.015959464
218	0xbd87aa65	-0.06624297
219	0x3ec37ece	0.38182682
220	0x3be63619	0.007025492
221	0xbef3a92d	-0.47590008
222	0xbdd253eb	-0.10269912
223	0x3e90fed0	0.28319407
224	0x3cc810fb	0.02442216
225	0x3d57da66	0.052698515
226	0x3d4d8f1a	0.0501853
227	0xbde7c9ae	-0.11317764
228	0xbe32cb60	-0.17460394
229	0xbc3bd44f	-0.0114641925
230	0x3ca6e18f	0.020371227
231	0x3e94c447	0.29055998
232	0xbefc6f0a	-0.49303466
233	0xbec185ad	-0.377973
234	0x3e46459d	0.19362493
235	0xbeb06cf7	-0.34458134
236	0x3dd2f0da	0.10299845
237	0xbc94500e	-0.01810458
238	0xbecca179	-0.39966944
239	0xbeb0bc69	-0.34518746
240	0x3e02b5e6	0.12764701
241	0x3ef7b5c1	0.48380855
242	0xbd2445c5	-0.0401056
243	0x3e2d40d5	0.16919263
244	0xbdcd7873	-0.100327395
245	0xbe5f2523	-0.2179151
246	0xbd7ad1c4	-0.061235204
247	0xbd85c35f	-0.06531405
248	0xbdc9f4db	-0.098611556
249	0x3d0db413	0.03459556
250	0x3ea56f0d	0.32311288
251	0xbddf432f	-0.10901486
252	0x3da59ed3	0.08086934
253	0xbd6e4e28	-0.058180004
254	0x3d530902	0.051522262
255	0xbec68d91	-0.38779882

critic.2.bias f4 [64]
0	0xbec68b3d	-0.38778105
1	0x3ef4fd63	0.4784957
2	0xbf3635dc	-0.7117593
3	0x3d5cc7c6	0.053901456
4	0x3ec389e0	0.38191128
5	0xbe91b218	-0.28456187
6	0xbf0324c7	-0.5122799
7	0xbeeb79ee	-0.45991462
8	0xbed41711	-0.41423848
9	0x3eb2069d	0.3477067
10	0x3ea8ec0e	0.32992595
11	0xbea95846	-0.3307516
12	0xbe8e1d38	-0.27756667
13	0xbefbde80	-0.49193192
14	0x3e208611	0.15676142
15	0xbe9aac14	-0.3020941
16	0x3e6c3c53	0.23069887
17	0x3de192c4	0.110143214
18	0x3d88d3f4	0.06681052
19	0xbe9ede0d	-0.31028786
20	0xbdfcb9eb	-0.123401485
21	0x3f28bbcb	0.6591155
22	0xbd890bca	-0.06691702
23	0x3e9900d3	0.2988344
24	0xbef9a23c	-0.48756588
25	0xbeed6851	-0.4636865
26	0xbee30f23	-0.44347486
27	0x3e30130f	0.1719477
28	0xbe411153	-0.18854265
29	0xbde40c2f	-0.11135136
30	0xbe2f2c78	-0.17106807
31	0xbd199bf7	-0.037502255
32	0x3ed3f85a	0.41400415
33	0xbd9680d5	-0.073487915
34	0x3f0294e2	0.5100843
35	0xbd1b95c6	-0.037984632
36	0xbe377780	-0.1791668
37	0xbef30eb0	-0.47472143
38	0xbdd333a7	-0.10312586
39	0x3e9b50ba	0.30335027
40	0xbee174bf	-0.44034383
41	0xbee91a20	-0.45527744
42	0x3ef66faa	0.48132068
43	0xbdb26105	-0.08709911
44	0xbe55eefb	-0.20891945
45	0xbf507119	-0.81422573
46	0xbdfd4e84	-0.12368491
47	0xbd81d897	-0.06340139
48	0xbd985dbb	-0.07439753
49	0x3ebe98a8	0.37225842
50	0xbf01e575	-0.5074075
51	0x3ea74c2a	0.32675296
52	0x3f0954d5	0.5364507
53	0xbed0fac9	-0.40816334
54	0x3eff9c89	0.49924114
55	0xbdcd4f21	-0.10024858
56	0x3e492cc0	0.19645977
57	0x3e44c22e	0.19214699
58	0x3e9ac122	0.30225474
59	0xbedac3ca	-0.427275
60	0x3e8805c2	0.26566893
61	0xbe84f6bf	-0.25969502
62	0xbe8e7aa5	-0.27827945
63	0xbe7dca0b	-0.24784105

critic.4.weight f4 [1, 64]
0	0xbde96571	-0.113963015
1	0x3db2f185	0.087374724
2	0xbdaf1db4	-0.08550587
3	0x3de5ab09	0.11214263
4	0x3d9c8351	0.07642234
5	0xbd1171fe	-0.035509102
6	0xbe6713d7	-0.22566162
7	0xbd5be3ea	-0.053684153
8	0xbdc7f092	-0.09762682
9	0x3d8fcd21	0.07021547
10	0x3cc725b1	0.024309965
11	0xbd9f9dd2	-0.07793774
12	0xbd978338	-0.07398075
13	0xbe1392fd	-0.1441154
14	0x3e130de2	0.14360765
15	0xbd8e8fa4	-0.06960991
16	0x3d63a3df	0.0555762
17	0x3dfa482b	0.12220796
18	0xbe9bf2b3	-0.30458602
19	0xbd92f9de	-0.07176565
20	0xbd9bee61	-0.076138265
21	0x3e0be295	0.13660653
22	0xbce754fc	-0.028238766
23	0x3d385c5b	0.045009952
24	0xbdf5a4cd	-0.11994324
25	0xbd9a54b1	-0.07535685
26	0xbdcf36ed	-0.10117898
27	0x3d896a96	0.06709783
28	0xbd516b7c	-0.051127896
29	0xbdcad49f	-0.099038355
30	0xbdcd7d80	-0.10033703
31	0x3d93ef63	0.07223394
32	0x3d4be5dd	0.04977976
33	0xbd88c522	-0.06678225
34	0x3da61563	0.08109548
35	0xbc76fc45	-0.015074794
36	0x3ea2663c	0.31718624
37	0xbda9d105	-0.082918204
38	0x3dd3f8ee	0.10350214
39	0x3e2f26f5	0.17104705
40	0xbe0c2e11	-0.13689448
41	0xbdb6cc13	-0.08925643
42	0x3d99c02e	0.075073585
43	0x3da16e9e	0.07882427
44	0xbd94f0cf	-0.07272493
45	0xbe6f1267	-0.23346864
46	0x3e2b5d88	0.16734898
47	0xbd9ec5fe	-0.07752608
48	0xbdc05f9f	-0.09393238
49	0x3d8f3dd2	0.06994213
50	0xbdbb68cc	-0.09150848
51	0x3dba52c0	0.090978146
52	0x3e00deed	0.1258504
53	0xbdb87fb2	-0.09008731
54	0x3da72ce4	0.08162859
55	0xbda68c5e	-0.08132242
56	0x3d79e14b	0.06100587
57	0x3decdfac	0.115660995
58	0x3dbdfb9f	0.092765085
59	0xbe34b0f0	-0.17645621
60	0x3d843071	0.06454552
61	0xbda34dcf	-0.07973825
62	0xbd5d2c61	-0.0539974
63	0xbdb92d27	-0.09041815

actor_mean.0.weight f4 [64, 153]
0	0x3d94534e	0.072424516
1	0xbef6776b	-0.48137984
2	0x3d5190e3	0.051163565
3	0xbe609f62	-0.219358
4	0xbcbccf68	-0.023048118
5	0x3ce2e564	0.027697273
6	0x3e6ddfbd	0.2322988
7	0x3dbe2073	0.09283533
8	0x3c96731a	0.018365432
9	0x3ca61f77	0.020278675
10	0x3dbf2d04	0.09334758
11	0xbc602d32	-0.01368265
12	0xbd686d38	-0.056744784
13	0xbdacf300	-0.08444786
14	0xbe06c338	-0.13160408
15	0xbe6e307c	-0.23260683
16	0x3dcb4a26	0.09926252
17	0x3d402ffa	0.046920754
18	0x3dc9806f	0.0983895
19	0xbe1305d0	-0.14357686
20	0xbbf5e6f1	-0.007504337
21	0x3e9459ac	0.28974664
22	0xbed7e593	-0.4216734
23	0x3e013da9	0.12621178
24	0xbdd5eb0f	-0.104452245
25	0x3c98999c	0.018627934
26	0x3d971fb8	0.07379097
27	0xbe382668	-0.17983401
28	0xbde50a36	-0.11183588
29	0xbd8e7327	-0.06955557
30	0x3d5e11a5	0.054216046
31	0x3e5b842a	0.21437135
32	0x3d4bafd2	0.049728222
33	0x3c50837d	0.012726662
34	0xbe067eed	-0.13134356
35	0x3d53d8ec	0.051720545
36	0x3e1f6385	0.15565307
37	0x3d9ed2b1	0.0775503
38	0x3d9d081f	0.076675646
39	0x3e7f4e7f	0.24932288
40	0xbc53b8ff	-0.0129225245
41	0xbd7147cf	-0.058906373
42	0xbeb989e1	-0.36238006
43	0x3c328e81	0.010898233
44	0xbdfc9902	-0.123338714
45	0x3d209301	0.039202694
46	0x3e4adf43	0.1981173
47	0xbc3c55a8	-0.011495031
48	0xbe565c2a	-0.20933595
49	0xbe1f382d	-0.15548773
50	0xbd8b7c78	-0.0681085
51	0x3e6bcb0f	0.2302668
52	0x3d88db1e	0.06682418
53	0xbc8e1a6a	-0.01734658
54	0x3e0adff2	0.13561991
55	0x3cb7ac6b	0.022421082
56	0xbc98a603	-0.018633848
57	0x3e0956d5	0.1341203
58	0xbdb81d7d	-0.089899994
59	0xbeae2182	-0.3400994
60	0x3e1fa578	0.15590465
61	0x3e69ce38	0.22832572
62	0xbe5d5072	-0.21612719
63	0xbdfb486d	-0.122696735
64	0x3e3663dd	0.17811532
65	0x3e0a9b5b	0.13535826
66	0xbe83123b	-0.25599846
67	0x3c84b808	0.016201034
68	0xbc9936e0	-0.018702924
69	0xbcc5c7ab	-0.02414306
70	0xbcf1146e	-0.029428687
71	0xbf22a443	-0.63531893
72	0xbcd3928a	-0.025826711
73	0xbc0c1b88	-0.008551486
74	0xbe1f0179	-0.15527906
75	0xbef0ac88	-0.4700663
76	0x3e23f104	0.16009909
77	0x3e989238	0.29799056
78	0xbd483181	-0.048875336
79	0xbdfdbf18	-0.12389964
80	0xbda38758	-0.07984799
81	0x3d476829	0.04868332
82	0xbdda58cc	-0.10661468
83	0xbe6913e9	-0.22761501
84	0x3dbf417f	0.09338664
85	0x3cacfedb	0.021117618
86	0x3e3e7627	0.18599759
87	0xbd26e8a5	-0.04074921
88	0xbe7edcca	-0.24888912
89	0x3e78f4ab	0.24312083
90	0x3d90e14e	0.070742235
91	0xbd8509aa	-0.06495984
92	0x3d07daa0	0.03316748
93	0xbd22ec9b	-0.039776426
94	0x3ddc83bc	0.10767314
95	0x3e179be1	0.14805557
96	0xbe192d58	-0.14958704
97	0x3e9d9e45	0.30784813
98	0x3dd33290	0.103123784
99	0xbccb8d91	-0.024847778
100	0xbe35b28c	-0.17743891
101	0xbdff0ea4	-0.12453964
102	0xbd4c3eb8	-0.0498645
103	0xbd8eb704	-0.06968501
104	0x3e8aaf82	0.27087027
105	0xbeca8803	-0.39556894
106	0x382dd855	4.144789e-05
107	0xbda0ef6f	-0.07858168
108	0x3cf2353a	0.029566396
109	0xbe07b3a1	-0.13252117
110	0x3e291549	0.16512026
111	0xbe68aeba	-0.22722903
112	0xbe0140b9	-0.12622346
113	0xbdb6087e	-0.088883385
114	0xbb7847ce	-0.0037884596
115	0x3ea9c01f	0.3315439
116	0xbe87067b	-0.26372132
117	0x3e1ee9f9	0.15518941
118	0xbd8ecb89	-0.06972415
119	0xbd114a92	-0.035471506
120	0x3ddb67aa	0.10713132
121	0x3e39ddcb	0.18151014
122	0x3e38963b	0.18026058
123	0xbdd38b09	-0.10329253
124	0xbe23e863	-0.16006617
125	0x3e6f4433	0.2336586
126	0x3cea24d0	0.028582007
127	0x3e28fa31	0.1650169
128	0x3c507833	0.01272397
129	0x3dab60f3	0.08368101
130	0xbed09122	-0.40735728
131	0xbe8d75cc	-0.27628934
132	0xbe85e278	-0.26149344
133	0xbf22f104	-0.6364901
134	0x3de82755	0.11335627
135	0xbd550bb6	-0.05201312
136	0xbd1fef40	-0.039046526
137	0x3e5033b7	0.20332228
138	0xbd7ef21c	-0.062242612
139	0x3e06d551	0.13167311
140	0xbe16093c	-0.1465196
141	0x3de43565	0.11142997
142	0x3ec79221	0.38978675
143	0xbdbcf200	-0.09225845
144	0xbea7a5fc	-0.32743824
145	0x3d1b9559	0.037984226
146	0x3ea911c1	0.33021358
147	0xbec50017	-0.3847663
148	0xbedd4046	-0.432131
149	0x3e0d2ac7	0.1378585
150	0x3d54bb4a	0.051936425
151	0x3d920022	0.071289316
152	0x3e88d426	0.26724356
153	0x3e34e71c	0.17666286
154	0xbce27645	-0.027644286
155	0xbe893412	-0.2679754
156	0x3dab165b	0.08353873
157	0x3b0842e8	0.0020791832
158	0x3cb831a6	0.022484612
159	0x3e810aae	0.2520346
160	0x3df7808e	0.12085067
161	0xbdf5353b	-0.119730435
162	0xbe9c4e87	-0.30528662
163	0xbdabe6fe	-0.08393668
164	0x3df01eef	0.1172465
165	0xbeb96acf	-0.362143
166	0xbd31852c	-0.043339893
167	0xbdb94457	-0.09046238
168	0xbe1f347e	-0.15547368
169	0xbe3a1a54	-0.18174106
170	0xbd1b48bc	-0.03791116
171	0x3d37e44f	0.044895466
172	0x3d5441ec	0.05182068
173	0xbd98d468	-0.07462388
174	0x3dc11177	0.09427159
175	0xbd6061fb	-0.05478094
176	0x3dc593f7	0.09647363
177	0xbcf6356a	-0.030054767
178	0x3d2f4bd5	0.04279693
179	0xbe5cffce	-0.21581957
180	0x3a81b51a	0.0009895891
181	0x3e0b0946	0.13577756
182	0xbe49238f	-0.19642471
183	0xbe73ea63	-0.2381988
184	0x3cccba18	0.02499108
185	0x3e01ecab	0.12687938
186	0xbd8680e0	-0.0656755
187	0xbd2f5bd1	-0.042812172
188	0x3d1a6467	0.037693407
189	0xbc566ecc	-0.0130879395
190	0x3cf0c857	0.029392404
191	0xbe1dd410	-0.15412927
192	0x3e084f01	0.13311388
193	0xbdcbd4a2	-0.09952666
194	0xbde87da5	-0.1135209
195	0xbe026a36	-0.12735829
196	0xbcae87e6	-0.021305036
197	0xbc1d3e77	-0.009597412
198	0x3d27b205	0.040941257
199	0xbb8d1a71	-0.0043061306
200	0x3e42a7aa	0.19009271
201	0xbe16294f	-0.14664195
202	0xbe5159e7	-0.20444451
203	0x3d577d93	0.05260999
204	0x3e28a8a1	0.16470577
205	0x3dce0bc2	0.100608364
206	0x3e2a0057	0.16601692
207	0x3dddc4d7	0.1082856
208	0x3de01d16	0.10943048
209	0xbdbd29d1	-0.092364915
210	0x3d3eab99	0.046550367
211	0xbe22cf66	-0.15899429
212	0xbdc6bc8c	-0.09703931
213	0x3d1250cd	0.03572159
214	0xbbc4bb07	-0.0060037407
215	0xbe0d1694	-0.13778144
216	0xbe172f0b	-0.14764039
217	0x3bb26519	0.0054441807
218	0x3ea9998e	0.33124965
219	0x3c58d7ba	0.013235027
220	0x3d94b0dd	0.072602965
221	0x3d31c51c	0.04340087
222	0xbde3f2fb	-0.11130329
223	0xbd5c0e05	-0.053724308
224	0x3e691670	0.22762465
225	0x3d56f804	0.05248262
226	0x3e001b81	0.12510492
227	0x3e3f45c3	0.18678956
228	0x3deaeb43	0.11470654
229	0xbc874499	-0.016512202
230	0x3c354d87	0.011065847
231	0x3d0b7d4f	0.03405505
232	0x3cbf57bd	0.023357267
233	0x3dba0570	0.09083068
234	0x3dbf9f05	0.093565024
235	0x3e1cb040	0.15301609
236	0xbccf29a7	-0.025288416
237	0x3db27087	0.08712869
238	0x3df4ba0d	0.11949549
239	0x3e4b3499	0.19844283
240	0xbe556414	-0.20838958
241	0xbe2fa65d	-0.17153306
242	0xbe6fc1be	-0.2341375
243	0x3e61aeda	0.22039357
244	0x3e4657ab	0.1936938
245	0x3d8765ca	0.066112116
246	0x3de33693	0.110943936
247	0xbe38d43a	-0.18049708
248	0x3e2ca668	0.16860354
249	0xbca9dc08	-0.020734802
250	0xbddf9413	-0.10916915
251	0x3da1a688	0.078930914
252	0x3f12a3e4	0.5728133
253	0x3f10ca35	0.56558543
254	0x3eb88e20	0.36045933
255	0x3e9ec790	0.3101163

actor_mean.0.bias f4 [64]
0	0xbdc41659	-0.09574575
1	0x3e7d7635	0.24752124
2	0x3c16a409	0.0091943825
3	0x3dce8c3b	0.100853406
4	0x3daa8d7f	0.083277695
5	0xbab501be	-0.0013809723
6	0xbcba6e1a	-0.022757579
7	0xbdfc9028	-0.12332183
8	0xbdfbd6bb	-0.12296816
9	0x3d74f929	0.05980793
10	0x3f2fae15	0.68625003
11	0xbd45ab57	-0.048259106
12	0x3ec84713	0.39116725
13	0xbe355999	-0.1770996
14	0x3e2452f3	0.16047268
15	0x3e25be58	0.16185892
16	0x3cdc8aac	0.026921593
17	0x3e9b7ab2	0.30367047
18	0xbef08f2c	-0.4698423
19	0x3dc23db4	0.09484425
20	0xbdfa3d39	-0.122187085
21	0xbca42dc8	-0.020041361
22	0x3d57c6b8	0.052679747
23	0x3d58c4f6	0.05292221
24	0x3e2a40cd	0.16626282
25	0x3df40072	0.119141474
26	0xbe07c478	-0.1325854
27	0xbef0c1d1	-0.4702287
28	0x3e96c894	0.29449904
29	0xbe3987b9	-0.1811818
30	0xbd6068df	-0.054787513
31	0xbe96a445	-0.29422203
32	0x3ee43e76	0.44578904
33	0x3deb18b0	0.11479318
34	0x3cdb4127	0.026764465
35	0xbe2ed6b0	-0.17074084
36	0xbeb0dae3	-0.34541997
37	0x3e05577f	0.13021658
38	0xbebf2257	-0.37330887
39	0x3ea979cd	0.3310074
40	0x3e427938	0.18991554
41	0xbdd88d6e	-0.105738506
42	0x3d562c67	0.05228844
43	0xbe8c0fce	-0.27355808
44	0xbe2a8c99	-0.16655196
45	0x3e1caa0c	0.15299243
46	0x3d1f49eb	0.038888853
47	0xbe5e1514	-0.21687728
48	0xbc889be4	-0.016675897
49	0x3d4144b4	0.04718466
50	0xbe1f5480	-0.15559578
51	0xbcf35786	-0.02970482
52	0x3eac9639	0.3370836
53	0x3d537269	0.051622782
54	0xbe3c0a3c	-0.18363279
55	0x3b915c72	0.004436069
56	0x3de0ea30	0.10982168
57	0xbe0a5863	-0.1351028
58	0x3e1570c7	0.14593802
59	0xbe385d04	-0.18004233
60	0x3e5a60ec	0.21326035
61	0x3df90c5f	0.12160563
62	0x3e39bd32	0.18138579
63	0xbe82fa5b	-0.2558163

actor_mean.2.weight f4 [64, 64]
0	0x3bc4e7d9	0.0060090837
1	0xbedc23d5	-0.42996088
2	0xbebb657b	-0.3660086
3	0xbe8b684a	-0.27228004
4	0x3e599c02	0.21250919
5	0x3f157836	0.5838655
6	0xbf02a219	-0.5102859
7	0xbcd2a964	-0.025715537
8	0x3e4b301f	0.19842575
9	0x3ec20b87	0.3789942
10	0xbf222d53	-0.6335041
11	0xbec94ada	-0.3931492
12	0x3e82c443	0.2554036
13	0xbe320bec	-0.1738736
14	0xbde7373f	-0.11289834
15	0x3e7b8da4	0.2456575
16	0xbf074b53	-0.5284931
17	0x3e67f208	0.22650921
18	0xbb9ac7e3	-0.0047235354
19	0xbe8402bb	-0.25783333
20	0x3f8c250b	1.0948805
21	0x3dfa6b18	0.12227458
22	0xbe21066e	-0.15725109
23	0xbe0de817	-0.13858066
24	0xbf02964d	-0.5101059
25	0x3f1d162b	0.6136195
26	0x3b1a34ad	0.0023529932
27	0x3e406036	0.18786702
28	0xbd2ef2bf	-0.04271197
29	0xbd86ea67	-0.065876774
30	0xbd437dce	-0.0477274
31	0xbe1a0cb0	-0.15043902
32	0x3eb8680e	0.36016887
33	0x3e91cdcf	0.28477332
34	0xbb54df9e	-0.003248192
35	0x3ea95868	0.3307526
36	0xbda61655	-0.08109728
37	0xbe1a6982	-0.1507931
38	0x3e81f815	0.25384584
39	0x3db65d8a	0.0890456
40	0xbf062e54	-0.5241444
41	0x3e69c672	0.22829607
42	0x3e4ea9ef	0.20182012
43	0x3c8072cc	0.01567974
44	0x3edffd80	0.43748093
45	0x3d239cb4	0.039944366
46	0xbe48897b	-0.19583695
47	0x3ddac5d2	0.106822625
48	0xbc377c3a	-0.0111990515
49	0xbe82e8cc	-0.25568235
50	0x3e830a75	0.25593916
51	0xbdfa5af4	-0.12224379
52	0xbe932103	-0.28736123
53	0x3e46241b	0.1934971
54	0x3e62d9ee	0.22153446
55	0x3dcebd11	0.10094655
56	0xbe9695b3	-0.29411086
57	0x3e35ea3a	0.17765132
58	0xbc93ef90	-0.018058568
59	0x3d9dc26b	0.07703098
60	0xbeb6a9b1	-0.3567634
61	0x3dc458c5	0.09587244
62	0xbdfbdfd5	-0.12298552
63	0xbf3666b2	-0.7125045
64	0x3e06a6ec	0.13149613
65	0x3e90abc9	0.28256062
66	0x3f26d4d8	0.65168524
67	0xbe97d870	-0.29657316
68	0xbd23ff84	-0.0400386
69	0xbe27799e	-0.16354987
70	0xbd1fbdd7	-0.038999405
71	0xbed21187	-0.41028997
72	0x3c7a8726	0.015291011
73	0x3d060ded	0.032728124
74	0x3d0b61fc	0.034028992
75	0x3e46960f	0.1939318
76	0xbeea7e34	-0.4579941
77	0xbd9e651c	-0.07734129
78	0xbe4dc302	-0.20093921
79	0xbe3fe1e3	-0.18738513
80	0x3e3fdaf4	0.18735868
81	0x3e038dcd	0.12847061
82	0xbd93583a	-0.07194562
83	0xbe84450f	-0.25833938
84	0xbec317c9	-0.38104084
85	0x3d02a2ed	0.03189366
86	0x3d3927a1	0.04520381
87	0x3e6723e6	0.22572288
88	0x3ecd71cf	0.40125892
89	0x3ceaa087	0.028640999
90	0x3e233e81	0.15941812
91	0x3ef63c48	0.48092866
92	0xbef25ebd	-0.47337905
93	0xbe583a0c	-0.21115893
94	0xbf037b55	-0.51360065
95	0x3eb1b6f3	0.34709892
96	0x3df7d272	0.12100686
97	0xbd9c90cd	-0.07644806
98	0xbf17ea5d	-0.59341985
99	0xbee82f13	-0.45348415
100	0x3d3b8316	0.04577931
101	0xbee55e6d	-0.44798604
102	0x3e2b39b9	0.16721238
103	0x3e062f1b	0.13103907
104	0x3eff2d4a	0.4983924
105	0xbcb6ac2b	-0.022298893
106	0xbddccfd5	-0.10781828
107	0x3cbacdc7	0.0228032
108	0xbe9834fe	-0.2972793
109	0x3ebfe403	0.37478647
110	0xbdfa1da2	-0.12212683
111	0xbd2554c1	-0.04036403
112	0xbe955ed6	-0.29173917
113	0xbd00e673	-0.031469774
114	0xbf278e1d	-0.6545122
115	0x3dc7a8b8	0.097489774
116	0x3e21b4cd	0.15791626
117	0xbeeec824	-0.4663707
118	0x3e6c0cbd	0.23051734
119	0x3e611902	0.21982196
120	0xbee1a10e	-0.44068187
121	0xbe9f4cf2	-0.31113392
122	0x3ebae4be	0.3650264
123	0x3eba0e7d	0.3633918
124	0xbe9fef8c	-0.31237447
125	0x3e553615	0.20821412
126	0x3e2e97d3	0.17050104
127	0x3ef6689f	0.48126695
128	0xbe93864f	-0.28813407
129	0x3e9100d6	0.2832095
130	0xbea41ac5	-0.32051674
131	0xbe45598b	-0.19272439
132	0xbe8d4056	-0.27588147
133	0x3eb211ea	0.34779292
134	0x3d884aa8	0.066548645
135	0xbc5a7b87	-0.013335115
136	0x3e30de9b	0.17272417
137	0x3e3153f5	0.17317183
138	0xbe8aefab	-0.27135977
139	0x3e53c5fa	0.20680991
140	0x3d59419e	0.053041093
141	0x3d823636	0.06357996
142	0xbedc2199	-0.42994383
143	0xbf1fec94	-0.62470365
144	0x3dbbc527	0.09168463
145	0x3f07976b	0.5296542
146	0xbe80659e	-0.25077528
147	0x3e9cb650	0.30607843
148	0xbe8aa57b	-0.27079377
149	0x3d199ee3	0.03750504
150	0x3dcfcdf5	0.10146705
151	0x3db457f5	0.08805839
152	0xbebcfa7d	-0.36909857
153	0x3da753ee	0.08170305
154	0xbec55b87	-0.38546392
155	0x3e062c7e	0.1310291
156	0x3e432cd0	0.19060063
157	0x3dd53821	0.10411096
158	0x3e5d7a5d	0.21628709
159	0xbc717ee9	-0.01473973
160	0x3eb79395	0.35854784
161	0xbf241bdc	-0.6410501
162	0x3ca01dfb	0.019545546
163	0x3e9ca777	0.30596516
164	0xbe442711	-0.19155528
165	0x3e98760f	0.29777572
166	0xbe295b0c	-0.16538638
167	0xbdcd7b6e	-0.10033308
168	0x3cdd2320	0.026994288
169	0xbe21cdb2	-0.15801123
170	0x3dce5b4b	0.100760065
171	0xbe528182	-0.20557216
172	0xbe3e66ed	-0.1859395
173	0x3cf6964b	0.030100962
174	0xbea7d828	-0.32782102
175	0x3e84ac46	0.25912684
176	0xbec577ad	-0.38567868
177	0xbe185cb4	-0.14879113
178	0xbe1142bd	-0.14185615
179	0xbf3896c4	-0.7210505
180	0xbe66f165	-0.22553022
181	0xbd272d16	-0.04081448
182	0x3eb6cab4	0.35701525
183	0x3edf2718	0.43584514
184	0xbebf63ce	-0.37380832
185	0x3e917948	0.28412843
186	0xbdcf25d9	-0.10114641
187	0xbde47059	-0.11154241
188	0x3f2a9fa2	0.6664983
189	0xbcde73be	-0.0271548
190	0x3e6a6700	0.22890854
191	0x3dc7e0c9	0.09759671
192	0xbd2ed7cb	-0.042686265
193	0xbe1843de	-0.1486964
194	0xbcfe2c02	-0.031026844
195	0x3ecba25a	0.39772302
196	0xbde597c1	-0.112105854
197	0x3eaa0d0b	0.33213076
198	0xbe60851d	-0.21925779
199	0x3db46afa	0.08809467
200	0x3efd7f97	0.49511406
201	0x3c9c5bc3	0.019086724
202	0xbe7c185c	-0.24618667
203	0xbcb48a9d	-0.022038752
204	0xbd17f573	-0.037099313
205	0x3df44cf5	0.11928741
206	0x3e00a2c4	0.1256209
207	0xbe6ce1b8	-0.2313298
208	0xbe86fc19	-0.2636421
209	0x3e349bb6	0.17637524
210	0x3ee3f72a	0.4452451
211	0xbe58b55f	-0.21162938
212	0x3df0f257	0.11764973
213	0xbe885bb3	-0.2663246
214	0x3cee9464	0.029123493
215	0xbe8be4be	-0.27322954
216	0xbedc83d7	-0.43069336
217	0x3f6b7b2e	0.9198483
218	0xbe3b562a	-0.18294588
219	0x3e925dce	0.28587192
220	0x3eb72c4f	0.35775992
221	0x3e32a4e5	0.17445715
222	0xbab79fa7	-0.0014009372
223	0xbe63cdfd	-0.22246547
224	0xbe2e10f1	-0.1699865
225	0xbd9485cd	-0.07252083
226	0x3db5f7d4	0.0888516
227	0xbdee2c06	-0.116294906
228	0xbe3fea91	-0.18741824
229	0x3f055a32	0.5209075
230	0xbdba713a	-0.091036275
231	0x3e9ecd56	0.31016034
232	0x3e7d959d	0.24764104
233	0x3e9d4a00	0.3072052
234	0x3e61909a	0.22027817
235	0xbdc6115f	-0.09671282
236	0x3f051329	0.5198236
237	0x3e4078ee	0.18796131
238	0xbe641a89	-0.22275747
239	0xbe900757	-0.281306
240	0xbf232fb8	-0.6374469
241	0xbe9fccd9	-0.31210974
242	0x3deafd02	0.11474039
243	0xbde3e7e0	-0.11128211
244	0xbef37d0e	-0.47556347
245	0xbcd69d2e	-0.026197996
246	0x3f073d11	0.52827555
247	0x3e8e4df3	0.27793846
248	0xbe8ef0e3	-0.27918157
249	0x3e8bb1f6	0.2728421
250	0x3e3403d3	0.17579584
251	0x3d8da4cc	0.06916198
252	0xbc877d81	-0.016539337
253	0x3f3aee0b	0.73019475
254	0xbeca0918	-0.39460063
255	0x3f352852	0.7076465

actor_mean.2.bias f4 [64]
0	0x3d9b2a15	0.07576386
1	0xbea3b91f	-0.31977174
2	0x3e2ee918	0.17081106
3	0xbe013f49	-0.12621798
4	0xbe8db221	-0.27674964
5	0xbea26a4c	-0.31721723
6	0x3e7ed711	0.24886729
7	0xbc1aff1c	-0.009460237
8	0xbd0d9fea	-0.034576334
9	0xbc1fad8e	-0.0097459685
10	0xbe1cb9a3	-0.1530519
11	0x3e8d2409	0.27566555
12	0x3dd8fa83	0.10594656
13	0x3d90a1d0	0.07062113
14	0xbdf53a57	-0.11974018
15	0x3e3b1c49	0.18272509
16	0x3d8c8545	0.06861357
17	0xbe658873	-0.22415332
18	0xbe0d11f4	-0.1377638
19	0x3e220a6c	0.15824288
20	0xbec38af6	-0.38191956
21	0xbd7b2929	-0.06131855
22	0x3dcf1297	0.101109676
23	0x3da31cc3	0.0796447
24	0xbe84d871	-0.25946382
25	0x3c3962b8	0.01131504
26	0x3d2f3cac	0.04278247
27	0xbe647774	-0.22311193
28	0xbe32e883	-0.17471509
29	0x3ee874dd	0.4540166
30	0x3edd4d70	0.43223143
31	0x3e25735f	0.16157292
32	0xbdd180a3	-0.10229614
33	0xbd153afc	-0.036433205
34	0x3e11e5f5	0.14247878
35	0xbe945b25	-0.28975788
36	0xbdfb2d92	-0.12264551
37	0xbd308b41	-0.043101553
38	0xbe065cb1	-0.13121296
39	0x3d6db169	0.05803052
40	0xbe395088	-0.18097126
41	0x3d9ed907	0.077562384
42	0xbdd2d7a0	-0.102950335
43	0x3da72d99	0.08162994
44	0xbec3f6fb	-0.3827437
45	0xbd1b7f06	-0.037962936
46	0xbe2ef61f	-0.17086075
47	0xbe529093	-0.20562963
48	0xbe9e4205	-0.30909744
49	0xbdb29ddc	-0.087215155
50	0x3d963890	0.07335007
51	0x3e0d1819	0.13778724
52	0xbe39eed5	-0.18157513
53	0xbb632c77	-0.0034663954
54	0x3d8a0d72	0.06740846
55	0x3de947e7	0.113906674
56	0x3d791625	0.060812134
57	0x3e7ec74d	0.24880715
58	0xbe8d4b20	-0.27596378
59	0x3c8029f5	0.015645007
60	0xbe2db999	-0.16965331
61	0xbdc8cee6	-0.09805088
62	0xbef239e7	-0.473098
63	0xbe68be31	-0.22728802

actor_mean.4.weight f4 [8, 64]
0	0x3db71ffa	0.08941646
1	0x3d629840	0.05532098
2	0xbda0964c	-0.07841167
3	0xbdb836f1	-0.08994854
4	0xbf2f5ca6	-0.68500745
5	0xbeb24f23	-0.34826002
6	0x3ea0cb69	0.3140519
7	0x3daa6cfb	0.083215676
8	0xbe98563b	-0.2975329
9	0xbe045705	-0.1292382
10	0x3dbc7421	0.09201837
11	0x3ec95696	0.39323872
12	0xbe7f22cc	-0.24915618
13	0xbdd0df6a	-0.10198863
14	0xbe37095c	-0.17874664
15	0x3e91e314	0.2849356
16	0xbdc7dffa	-0.09759517
17	0xbeb43e68	-0.35203862
18	0x3f2a37e9	0.6649156
19	0x3f14b56a	0.58089316
20	0xbd10e8c8	-0.035378247
21	0xbe6b2f3a	-0.22967234
22	0x3e25a67d	0.16176791
23	0x3da7bc2c	0.08190188
24	0xbe015ee0	-0.12633848
25	0xbf3f7cae	-0.7479962
26	0x3e372c30	0.1788795
27	0x3e0efb4d	0.13963051
28	0x3e23f099	0.1600975
29	0x3db3b6a9	0.08775074
30	0x3ed988a2	0.42487055
31	0xbe9fb457	-0.31192276
32	0x3f0e05a6	0.5547737
33	0x3e538446	0.20655927
34	0x3ef4e268	0.47828984
35	0x3f1075ca	0.5642973
36	0x3ec51f20	0.3850031
37	0x3f1d3c42	0.6142007
38	0xbe4cd9e9	-0.20005001
39	0x3dd369cb	0.10322913
40	0xbef4e0a1	-0.47827628
41	0xbd6d23cc	-0.057895467
42	0xbf0e1700	-0.55503845
43	0x3f27e41c	0.6558244
44	0xbf004347	-0.5010266
45	0x3eff0b8a	0.4981349
46	0xbe689dd2	-0.22716454
47	0x3e52c360	0.20582342
48	0xbed353a3	-0.41274747
49	0xbea1f06b	-0.31628737
50	0xbf0ce408	-0.5503545
51	0x3f1c1aa2	0.6097814
52	0xbf8b57f7	-1.088622
53	0xbe4a862c	-0.19777745
54	0xbea9ec7a	-0.3318823
55	0x3dafee38	0.085903585
56	0xbcfbbece	-0.030730631
57	0x3eafb3fd	0.34317008
58	0x3ef35b1a	0.47530442
59	0x3c754c83	0.014971855
60	0xbf0e818b	-0.55666417
61	0xbd2d151a	-0.042256452
62	0xbf1181e0	-0.568388
63	0xbebba7b6	-0.3665139
64	0xbe4f0d3f	-0.20219897
65	0x3f0027ec	0.50060916
66	0xbf0087e3	-0.50207347
67	0x3c396edb	0.011317934
68	0xbd82c77b	-0.06385704
69	0x3c6e4293	0.01454224
70	0xbf105544	-0.56380105
71	0xbe0ff41d	-0.14057966
72	0x3f019789	0.5062185
73	0x3d7ed620	0.062215924
74	0xbf27e37e	-0.655815
75	0xbda3f284	-0.080052406
76	0x3ee0d339	0.4391115
77	0xbf35d515	-0.7102826
78	0xbeaee3a8	-0.34158063
79	0x3e3823e2	0.17982438
80	0xbe0349aa	-0.1282107
81	0x3f1ebbb1	0.62005144
82	0x3eeb5495	0.45962968
83	0xbf8979dc	-1.0740314
84	0x3e568b81	0.20951654
85	0xbe75e0c0	-0.24011517
86	0x3da19f57	0.0789172
87	0x3e7af4cf	0.2450745
88	0x3ed86b8d	0.42269555
89	0xbf05ef88	-0.5231862
90	0x3f137afd	0.5760954
91	0x3e1ff170	0.15619445
92	0x3f116aac	0.56803393
93	0x3dcf7b31	0.10130919
94	0xbf354d8d	-0.7082146
95	0xbe40dbe9	-0.18833889
96	0xbdbaf5d6	-0.09128921
97	0x3e746518	0.23866689
98	0xbe1d13d1	-0.1533959
99	0x3efaeaee	0.49007362
100	0x3f13e2a6	0.57767713
101	0xbe919784	-0.2843591
102	0xbe4af8a2	-0.19821408
103	0x3e57257e	0.21010396
104	0x3f6e2f14	0.93040586
105	0x3e78cf56	0.24297842
106	0x3e69bb2e	0.2282531
107	0xbed78d22	-0.42099863
108	0xbeb4a2af	-0.35280368
109	0xbf2124dd	-0.62946874
110	0x3f494b35	0.7863038
111	0xbee5a395	-0.44851366
112	0x3eb37732	0.35051876
113	0xbd2cc93c	-0.0421841
114	0x3f212ec9	0.62962013
115	0x3e4da609	0.20082869
116	0xbb8bf962	-0.004271672
117	0x3f422223	0.7583334
118	0xbf09adb0	-0.5378065
119	0xbf49578d	-0.78649217
120	0xbef87547	-0.48526976
121	0xbe9b726c	-0.30360734
122	0x3e984171	0.29737428
123	0xbd308dd0	-0.043103993
124	0x3ecc3730	0.39885855
125	0x3b0d2a3c	0.0021540066
126	0xbd6ad98a	-0.057336368
127	0x3e968993	0.29401836
128	0xbf7e3cad	-0.99311334
129	0x3e92b542	0.28653914
130	0x3d317f60	0.043334365
131	0xbf09c42f	-0.5381498
132	0x3df688bc	0.12037799
133	0xbf94d2c6	-1.1626823
134	0xbe292c6e	-0.16520855
135	0x3c334b61	0.010943265
136	0xbe03e40d	-0.12879963
137	0x3d2b6b21	0.041850213
138	0x3f75f3da	0.9607521
139	0xbf108edd	-0.5646799
140	0xbc2352f3	-0.009968507
141	0xbdbca91c	-0.092119426
142	0x3f58abf2	0.8463737
143	0x3ec6fbb7	0.38863918
144	0x3ecf7479	0.4051855
145	0xbe1d70da	-0.1537508
146	0xbf101306	-0.5627903
147	0x3d29a2b1	0.04141492
148	0xbee4afbb	-0.44665322
149	0x3ebed958	0.37275195
150	0xbf148ab8	-0.5802417
151	0xbdc28b41	-0.09499217
152	0x3e83bb3a	0.2572878
153	0xbd105680	-0.035238743
154	0x3e279b0a	0.16367736
155	0xbf7d6ab0	-0.9899092
156	0x3f7814fe	0.9690703
157	0x3cedcd24	0.029028483
158	0x3e00387a	0.12521544
159	0x3ef48ec6	0.47765177
160	0x3fa7f923	1.3122905
161	0xbf192e3f	-0.5983619
162	0xbde383d8	-0.111091316
163	0xbe76d0fa	-0.24103156
164	0x3e531181	0.20612146
165	0x3dbf6797	0.0934593
166	0x3f7b5671	0.98178774
167	0x3f27d15d	0.6555384
168	0x3f46f94b	0.7772414
169	0x3e016f9b	0.1264023
170	0x3e8ff914	0.2811972
171	0x3ee55c09	0.4479678
172	0x3ee97292	0.45595223
173	0xbf32438f	-0.69634336
174	0x3e4b5be7	0.19859277
175	0x3f51b50c	0.8191688
176	0xbe38a23c	-0.18030638
177	0xbdf7f53b	-0.12107321
178	0x3e95c577	0.29252216
179	0x3ebd478d	0.3696865
180	0x3f008375	0.5020059
181	0xbf103323	-0.5632803
182	0xbf0f8cef	-0.5607442
183	0x3e939b9c	0.28829658
184	0x3f3baa7a	0.73307
185	0xbf19f82d	-0.6014431
186	0xbcb0e9fb	-0.021595946
187	0xbefe1bca	-0.49630576
188	0x3e2c1da8	0.16808188
189	0x3f1afd3b	0.6054265
190	0x3f0ad532	0.5423156
191	0xbe0f57ff	-0.13998412
192	0x3dde71b7	0.10861533
193	0xbf18a20c	-0.59622264
194	0x3e09c592	0.13454273
195	0xbeae361b	-0.34025654
196	0x3dd5c343	0.10437634
197	0xbcbd5fb8	-0.023116931
198	0x3eb4f82c	0.3534559
199	0x3f32c700	0.698349
200	0xbd73d7c4	-0.059531942
201	0x3f93f1d7	1.1558179
202	0xbe816e9c	-0.252797
203	0xbd19e2a1	-0.037569646
204	0x3f006b92	0.5016414
205	0xbe906f05	-0.282097
206	0xbe4faf77	-0.20281778
207	0x3f1b8d68	0.60762644
208	0x3f029eaf	0.5102338
209	0xbd22c2d7	-0.039736595
210	0xbce65570	-0.028116912
211	0x3f043d29	0.51655823
212	0x3eb7146b	0.35757765
213	0xbd4f680b	-0.050636332
214	0x3c168041	0.009185852
215	0xbefd3ef7	-0.494621
216	0x3e4c3fbb	0.19946186
217	0xbeb45051	-0.35217527
218	0x3eb63619	0.35588148
219	0xbe43b932	-0.19113615
220	0xbeaef36e	-0.34170097
221	0x3ee5c8f6	0.44879884
222	0xbe94b25c	-0.29042327
223	0x3f158b24	0.58415437
224	0x3e4a5e69	0.19762577
225	0xbe61e0b3	-0.22058372
226	0xbe4ad32b	-0.19807117
227	0x3f6bfc98	0.921823
228	0x3f3c19ea	0.7347704
229	0xbea9942f	-0.33120868
230	0xbf1887ca	-0.595822
231	0x3ede733e	0.43447298
232	0x3df0d22d	0.11758838
233	0xbe78388c	-0.24240321
234	0x3f1375d1	0.5760165
235	0xbe3ef685	-0.18648727
236	0x3d7d8c47	0.061901357
237	0x3eae48fc	0.34040058
238	0xbf8a12d4	-1.0786996
239	0xbdc06c59	-0.09395666
240	0xbdf2ceda	-0.1185586
241	0xbf176218	-0.59134054
242	0x3e85a19f	0.2609987
243	0xbe13a3c3	-0.14417939
244	0xbe436053	-0.19079714
245	0x3f26656c	0.6499851
246	0xbf4c3535	-0.7976869
247	0xbf304219	-0.68850857
248	0xbe3d9317	-0.18513142
249	0x3f132906	0.5748447
250	0xbf4b55fb	-0.7942807
251	0xbecdc276	-0.40187424
252	0xbecaa90b	-0.39582095
253	0xbe30284c	-0.17202872
254	0x3e4fb935	0.20285495
255	0x3d659ed7	0.056059685

actor_mean.4.bias f4 [8]
0	0x3db26feb	0.08712753
1	0xbea9562d	-0.3307356
2	0xbd8d179f	-0.06889271
3	0x3e02f931	0.12790371
4	0xbe5401dd	-0.20703836
5	0x3e33c391	0.17555071
6	0x3e9cf4ad	0.30655423
7	0x3e2b6a0b	0.16739671
