mmjc_env/envs/steering_policy/maz-001-rev3-left.pt (torch, 119321 bytes, 12 tensors)

actor_logstd f4 [1, 8]
000000 41 3c 0f 40 5a a3 18 40 f5 bc 0a 40 66 4f 16 40
       2.2380526 2.3849702 2.167783 2.348596
000010 b9 8c 0e 40 06 9b 26 40 e6 cc 1a 40 db 7e 2c 40
       2.227339 2.6032119 2.418756 2.6952426

critic.0.weight f4 [64, 153]
000000 2d 31 88 3d e2 d8 fb bd 47 b9 c5 3c ef 82 75 bd
       0.066500045 -0.122972265 0.024136199 -0.05993932
000010 0b 26 d3 bb 63 1e 2e 3d 00 bc ba 3c b1 7b 02 be
       -0.006443744 0.042509448 0.022794724 -0.12742497
000020 61 be de bb a4 35 82 bd c6 2c 26 3e 01 21 21 3e
       -0.0067975973 -0.063578874 0.16228017 0.15735246
000030 e3 ac 39 3e 7f cd 47 bc db 4b 24 be 2e a4 04 bd
       0.18132357 -0.01219499 -0.16044562 -0.032383136
000040 2c 4d dd bc a7 1f 18 bd 6f aa 25 3e 0c 96 38 3d
       -0.027014337 -0.03713956 0.16178297 0.04506497
000050 fb 07 9c bc b1 c4 67 3d 38 fa 8a bd f5 5e 88 3d
       -0.019046774 0.056584064 -0.06786007 0.066587366
000060 7e 7c 24 3e 8b be 47 3c 01 5c 47 be f5 44 c5 bc
       0.16063115 0.012191425 -0.1946869 -0.024080733
000070 1d 47 e2 3d 00 63 87 bd e7 7b ff bd 87 56 85 bd
       0.1104872 -0.066106796 -0.12474804 -0.065106444
000080 dc 30 14 3e a8 38 c4 bd 7d ac 59 3e ed 92 19 be
       0.14471763 -0.09581119 0.21257205 -0.14997454
000090 70 93 1c bc 15 53 21 bd 54 e3 73 3e 89 30 b2 3e
       -0.009556636 -0.039385874 0.23817188 0.34802654
0000a0 25 f6 23 3e c2 d8 30 be b1 bd 1d be 9c 2b e2 bb
       0.16011865 -0.17270187 -0.15404393 -0.0069021713
0000b0 46 31 44 bd c6 96 59 3e 76 d3 81 bd bf 64 9c 3c
       -0.047898553 0.21248922 -0.06339161 0.019091008
0000c0 f9 35 c6 3d 1e 3a 9a 3d 3c 90 de bd c1 40 81 3d
       0.09678263 0.07530616 -0.10867354 0.06311179
0000d0 bb 3a 04 3e 0c cc f6 bd 04 68 a1 3d 65 50 5d be
       0.12913029 -0.120506376 0.078811675 -0.216127
0000e0 e4 ad ff bd 5d 3a 11 3d cb 9d 00 3e 8a d2 37 be
       -0.12484339 0.03545605 0.12560193 -0.17951408
0000f0 1f ef 41 3d 07 c8 25 be 86 21 3c bd fd 96 f3 bb
       0.047347184 -0.16189586 -0.045930408 -0.0074337707
000100 a5 4e 23 3e b5 0d 99 3e d2 1b f8 bd cd a4 e2 3c
       0.1594797 0.2989327 -0.12114681 0.027666474
000110 cd ef 65 bd e0 17 59 bc 97 8e d9 3d 8b e9 42 3e
       -0.056136895 -0.013250321 0.106229 0.19034402
000120 1a 80 a9 bc 8b 18 4c bc ff 90 ee bc a4 b0 57 3e
       -0.020690966 -0.012457023 -0.029121874 0.21063477
000130 bc 89 a2 3d d6 93 4b be 2c 54 11 be 89 10 08 3e
       0.07936427 -0.19880614 -0.14192265 0.13287558
000140 d5 86 e5 bc 37 6b 0c be 8c 39 76 3d ba 21 1a 3e
       -0.028018394 -0.13712774 0.060113475 0.15051928
000150 e8 f5 ee bc b6 2e 27 3e 69 30 26 bc 32 c6 08 3e
       -0.029169992 0.16326413 -0.010143378 0.13356856
000160 75 38 1d 3d de 16 0f bd cb c2 4f be fd 1a 5a be
       0.03838392 -0.034933917 -0.20289151 -0.21299358
000170 05 d4 d9 ba 09 22 88 3e 55 b8 0e 3e b1 3f 65 3e
       -0.0016618973 0.26588467 0.13937505 0.22387578
000180 53 f0 02 be 74 08 76 bd e0 e1 95 be 4f 34 e8 bd
       -0.12786989 -0.060066655 -0.2927389 -0.11338102
000190 f2 22 36 be 1d b2 1f be 38 3f cb bc df 91 3b 3e
       -0.17786768 -0.15595289 -0.024810418 0.18317364
0001a0 8b a1 24 3e 08 9b ae bd 43 b8 83 be 85 cc a7 3d
       0.16077249 -0.085256636 -0.25726518 0.08193306
0001b0 29 43 fd bd c0 3a 88 3c d0 68 05 be d7 dd 50 3e
       -0.123663254 0.016629577 -0.13028264 0.20397125
0001c0 e9 98 18 bd 3d 95 9f 3d d2 63 8e 3d a5 f5 4f bd
       -0.0372552 0.07792137 0.06952633 -0.050771374
0001d0 ae ce 01 3e 7d 0f a9 bd 7f 32 fc 3d 83 7b 3b 3e
       0.12676498 -0.08254907 0.12314319 0.18308835
0001e0 d1 02 81 3d 88 30 aa bd 6f dc ae 3c 54 2b 07 be
       0.06299365 -0.08310038 0.021345345 -0.13200122
0001f0 d8 c7 8d 3c f8 6d 25 3e ab 4e d8 3b 8f 59 91 bc
       0.017307207 0.16155231 0.006601175 -0.0177429
000200 64 61 24 be 81 07 b8 ba 2e 33 0e 3e cd 55 c2 bd
       -0.16052777 -0.0014040322 0.13886711 -0.094890215
000210 32 9a f6 bc 5e 0b 04 bc a9 ad c8 bd 85 ff 9b 3c
       -0.030102823 -0.008059351 -0.09798748 0.01904274
000220 83 df 9f 3d 24 ef d3 bc 6d 75 55 3c c8 e5 b4 bd
       0.07806303 -0.025870867 0.013028485 -0.0883289
000230 54 44 16 3e ec f0 c3 3d fa 0e 5e 3d af 4a a8 bd
       0.14674503 0.095674366 0.0542135 -0.0821737
000240 cc 01 cb 3b f3 7d 0c bd f0 e3 55 3c 31 db 99 be
       0.0061952826 -0.034299802 0.013054833 -0.30050042
000250 13 11 ca 3e 4e 1c e4 be d6 0c d5 3d 5a 25 d7 3e
       0.39466152 -0.44552845 0.10402839 0.42020684
000260 db c4 ea be 2e fc 77 be ef e7 bc 3e ce 32 2b be
       -0.45853314 -0.24217293 0.368957 -0.16718599
000270 e4 58 2a 3d 2e 2b 61 bd d4 95 dc 3d 59 50 21 3b
       0.04158868 -0.05497282 0.10770765 0.0024614541
000280 71 cf ad bd 64 65 c2 bc f2 ef 5d 3d 97 c6 dd bc
       -0.08486832 -0.023729987 0.054183908 -0.027072234
000290 3d 46 e7 bd ec 6f bc 3d 32 a9 ff 3c f0 0a 01 bd
       -0.11292694 0.09201035 0.031208608 -0.03150457
0002a0 44 78 6b be 5b 48 ab bc b8 c4 a5 be 37 10 af bb
       -0.22995096 -0.020908525 -0.32376647 -0.005342509
0002b0 af 3d 45 3e ce 1b 51 bd f7 b9 ee bd 00 1a 3a 3e
       0.19261812 -0.051051907 -0.11656564 0.1817398
0002c0 aa 61 86 3d 36 0a 66 3c 61 50 a6 3d 8d 63 d6 3d
       0.06561597 0.01404052 0.081208 0.104682066
0002d0 55 c5 bb bd 94 7c 0a be 48 e1 a5 bc 92 2c 06 3e
       -0.091684975 -0.13524085 -0.020249024 0.1310294
0002e0 cb 0b a8 bd b3 d5 55 bd 52 1a ea 3c de ec 0c 3e
       -0.08205374 -0.052205753 0.028577004 0.13762233
0002f0 73 4e ba 3e 69 10 4a 3d 54 f9 dc bd 70 b7 1b bd
       0.36387977 0.049332056 -0.10789743 -0.038016737
000300 59 e7 f1 3d e1 f8 c1 bd 0f 29 01 3d 64 d0 ed 3d
       0.11811704 -0.09471298 0.031533297 0.11612013
000310 41 c9 04 bd 5f 0f 22 be ef 00 21 bc 72 12 a1 3d
       -0.032418493 -0.15826176 -0.009826883 0.07864846
000320 b8 b3 99 bc 49 d0 f6 bd 04 b4 c2 bb da c1 ba bd
       -0.018762454 -0.12051446 -0.0059418697 -0.091190055
000330 19 20 3f 3e 23 40 f9 3c d7 96 94 bd 62 cb 65 bd
       0.18664588 0.03042609 -0.07255333 -0.056102164
000340 cd c2 2f 3d f3 e8 11 3c 77 f6 38 be 61 d7 9f bc
       0.042910386 0.008905637 -0.18062769 -0.01951188
000350 a0 e0 33 3e a3 33 9f 3d b4 7c bf bd bb 9a 57 bd
       0.17566156 0.07773521 -0.09349957 -0.052637797
000360 b6 68 3e 3d 36 6e 28 3d 55 be 49 be 97 5a 87 3d
       0.04648658 0.04112073 -0.19701512 0.066090755
000370 cf 3e a8 bc 22 b9 97 3d 8c a8 04 be 33 86 db bd
       -0.020537762 0.07408358 -0.1295492 -0.10718956
000380 d2 31 5d 3e f2 d2 9e 3d 78 d4 27 bd 3d f4 90 bd
       0.21601036 0.077550784 -0.04097411 -0.07077835
000390 d1 22 db bd 3c 4c ea 3c ab 91 ab 3d e7 7f 01 3d
       -0.107 0.028600805 0.08377393 0.031616118
0003a0 31 10 21 be ae d2 88 bd 9c 19 21 be d8 84 16 bc
       -0.15728833 -0.06680809 -0.15732425 -0.009186946
0003b0 ff 41 4b be 65 35 9b bd 68 b2 cc bb 7b d3 ce 3d
       -0.19849394 -0.075785436 -0.0062468536 0.100989304
0003c0 f3 52 b3 3c c8 e6 36 be 8b 48 8e 3c 82 f4 93 bb
       0.02189014 -0.17861474 0.017368576 -0.0045152316
0003d0 e1 f0 dc 3b 04 33 24 bd af 21 1b 3d 0d 95 05 3e
       0.006742582 -0.040087715 0.03787392 0.1304514
0003e0 5e d0 c4 be 35 95 9b bd 4f 42 3b be 22 1d c3 3d
       -0.38440222 -0.07596818 -0.18287013 0.09527041
0003f0 be 50 c6 3c 04 2d 08 3e 90 c1 a6 be 63 1b 42 3d
       0.024208423 0.13298422 -0.3256955 0.0473894

critic.0.bias f4 [64]
000000 15 4f 0f bf 97 f2 93 3e 94 62 8c be 99 16 ed bd
       -0.55980045 0.2889602 -0.2741896 -0.11576576
000010 e1 95 a2 3f 72 98 98 3e b3 18 1d 3f 36 59 88 be
       1.270199 0.29803807 0.61365813 -0.26630563
000020 e7 d3 19 3f 4b d8 56 3e 06 ee 1a bf c4 7e 54 3d
       0.6008896 0.20980947 -0.60519445 0.051878706
000030 97 b8 2a be fe e8 18 3f d1 5a a3 3f d4 c3 a6 3f
       -0.16671978 0.5973052 1.276209 1.3028512
000040 22 cc 28 be 83 fb 2c bf 5b 2c 01 bf 88 ca 8d 3f
       -0.1648412 -0.67571276 -0.50458306 1.1077433
000050 77 9d 85 bf 4a 89 09 bf 3d d8 f5 3d e4 6f 68 3f
       -1.043868 -0.5372511 0.12004135 0.9079573
000060 f3 f2 4a 3f b1 7f a1 bf 40 b5 e8 be 47 b4 d1 bd
       0.7927696 -1.2617093 -0.45450783 -0.10239463
000070 1d 6d 70 bf 41 1b 94 be 4a 95 64 3f 9e 55 05 3e
       -0.93916494 -0.28927043 0.892903 0.13020942
000080 98 d8 5f bf 0c 70 e9 be c1 24 cb 3e d8 8e c4 3e
       -0.8743987 -0.45593297 0.39676479 0.3839023
000090 35 04 88 be 55 f0 ed be 77 a1 47 be 71 f4 af be
       -0.2656571 -0.4647242 -0.19495188 -0.34366181
0000a0 4e 5f 90 3e 71 b2 de be b3 2a a6 3e d5 1e 04 be
       0.28197712 -0.43495515 0.32454452 -0.12902386
0000b0 1e f6 2d 3f ab 93 50 bf 0c e3 c7 be c1 18 c1 3e
       0.6795367 -0.81475323 -0.3904041 0.37714198
0000c0 c0 c2 92 be a8 b5 2b bf 2a cc a3 be 02 02 0e 3f
       -0.28664207 -0.6707406 -0.31991702 0.55471814
0000d0 c2 d9 b9 be b2 00 44 bf 4a a9 da 3d e2 07 a2 3e
       -0.3629895 -0.7656356 0.106768206 0.3164664
0000e0 78 27 ae 3d 9e 49 8a be 5f 0d 03 bc fc 64 0f be
       0.08503622 -0.2700929 -0.007998793 -0.14003366
0000f0 50 93 06 bf e9 4c db 3d 2b 9b 9e 3e 11 9d 20 bf
       -0.5256853 0.10708029 0.3097776 -0.62739664

critic.2.weight f4 [64, 64]
000000 e7 a1 3f 3e 06 70 7e be 7d 59 ef 3d ff e8 b0 3e
       0.18714105 -0.24847421 0.116869904 0.34552762
000010 c2 a5 d3 bd a4 3f ce 3d a1 ae b5 be 5f de a7 3e
       -0.1033435 0.10070732 -0.35484794 0.32786843
000020 ec ce dd bd 50 e3 ec 3c 57 dc 4e be 98 ce ab 3e
       -0.10830483 0.028916985 -0.2020124 0.33556056
000030 cf 33 4f be 60 02 31 3e 12 97 f5 be 7f fa 82 be
       -0.20234607 0.17286062 -0.4796682 -0.25581738
000040 7a db fc bd c0 72 dc 3c 30 22 a1 bd 75 f3 07 be
       -0.12346549 0.026910186 -0.07867849 -0.13276465
000050 5e a7 5e 3e d2 97 5d 3e 9e 5a e5 bd 0a a6 c8 bd
       0.21743533 0.21639946 -0.111989245 -0.097972944
000060 0d 8b 47 be a5 2b 7e be 99 02 f8 3e a9 21 fa be
       -0.19486637 -0.24821337 0.48439482 -0.48853806
000070 ed 76 1d 3e d3 ca 1e 3d 4b c0 a3 bd 50 ed a9 be
       0.15377398 0.038767647 -0.07995661 -0.33188868
000080 64 35 8c 3d 37 0f 85 3e 0b 65 37 3b 9f 78 97 be
       0.06846121 0.2598817 0.002798381 -0.29584214
000090 1f 88 8a 3d 92 07 84 3e 36 77 eb 3c fe a4 6d 3d
       0.06764244 0.25787026 0.028743368 0.058018677
0000a0 e9 f6 04 be 37 00 8d 3e 68 6a 44 bb 99 30 2c 3e
       -0.12984814 0.27539226 -0.002997065 0.16815414
0000b0 42 8e 1a bd 16 5f 20 be f9 52 36 3e 32 dd 3c be
       -0.037733324 -0.15661272 0.17805089 -0.18443754
0000c0 88 d0 19 3e 6c 93 12 3e ff d6 1b be f5 d1 82 3c
       0.15020955 0.1431405 -0.15218733 0.015969256
0000d0 e2 05 8d be d5 ef 40 be 11 5d b8 3c 3b 59 a4 bd
       -0.2754355 -0.18841489 0.022505315 -0.08024832
0000e0 38 37 1e be f3 14 a9 be 94 51 d8 be bc 03 63 3e
       -0.15450752 -0.33023795 -0.4224974 0.22169393
0000f0 9a 2b 8a 3e 11 cc 51 be bc e0 72 bd 44 f5 30 bc
       0.2698639 -0.20488001 -0.059296355 -0.010800663
000100 2f d7 29 bd 74 80 56 be 28 3f bb 3e e0 60 7e 3c
       -0.04146498 -0.20947438 0.36571622 0.0155260265
000110 e1 af df 3e cd 89 aa bd 6a 29 c6 3e 4e fe 36 3e
       0.43688872 -0.08327065 0.3870347 0.17870447
000120 6a 3b c3 3e 2e 3d 0b 3e b8 4d a5 be 9f 81 71 3c
       0.38131267 0.13597557 -0.32285857 0.014740377
000130 1e 21 89 bb 33 ad 51 3d 28 ce e3 3d 50 17 82 3e
       -0.004184856 0.051190566 0.111233056 0.2540841
000140 7f 9c 5a bd 75 42 c0 3d 45 4b 94 3e 7b d7 98 3e
       -0.053371903 0.09387676 0.28963676 0.298519
000150 94 cc 4b 3e e7 6a a1 be d4 79 1a bc 01 8b 07 bf
       0.19902259 -0.31526873 -0.00942846 -0.5294648
000160 ac 3f 6a 3e e0 eb bf bd 1c 8a 17 3e 9e 6d a8 be
       0.22875851 -0.093711615 0.14798778 -0.3289613
000170 68 3f b5 bc 00 89 3e be 58 f1 52 3e 5f ca 6a bc
       -0.022124961 -0.18606949 0.20599878 -0.014330476
000180 e2 5d 94 be 81 a1 0e bf 74 d6 75 be c9 32 49 3d
       -0.28977877 -0.55715185 -0.24007589 0.049120698
000190 7b a1 7e 3e dd 00 2b be 8d 89 a0 bd 1f 74 91 bd
       0.24866287 -0.16699548 -0.07838736 -0.071022265
0001a0 9b 1b 9d 3e f3 9c a0 be 8c 2e 4d 3e 25 71 23 bf
       0.30685124 -0.31369743 0.20037287 -0.6384452
0001b0 43 9c 46 3e ad a9 bc be 4a 04 81 bd 16 15 0c bf
       0.19395547 -0.36848202 -0.06299646 -0.54719675
0001c0 a6 aa 86 be 0c 4a 4b be d5 71 cd bd 11 fc 20 3e
       -0.2630207 -0.19852465 -0.10031477 0.15721156
0001d0 61 85 03 3e 23 ea 69 3e ea 5c 8b bd 78 84 85 3e
       0.12843849 0.22843222 -0.06804831 0.26077628
0001e0 89 c9 2a 3e 81 d7 c4 bb 12 81 96 3e e4 16 31 be
       0.16678442 -0.0060071354 0.29395348 -0.17293888
0001f0 73 a4 c0 3a d7 40 02 be 08 22 0d 3e 34 94 19 be
       0.0014697447 -0.12720047 0.13782513 -0.14997941
000200 02 5f 97 3e 74 01 7a be 6a e2 a3 be bd 7b fc bd
       0.29564673 -0.24414617 -0.32008678 -0.12328289
000210 f4 68 85 3e 3e 29 1f 3e 6a 1e d7 3e 79 41 28 bc
       0.26056635 0.15543076 0.42015392 -0.010269516
000220 5a d2 71 be a3 5b e9 3d 2a 47 6f be d5 28 9f be
       -0.23615399 0.113944314 -0.2336699 -0.3108584
000230 de b8 e6 3e 0c d1 88 bd f5 04 9b be 79 89 f8 be
       0.45062917 -0.066804975 -0.3027722 -0.48542383
000240 7a 18 9f 3e fb b8 02 bf ae 4c 9c 3e 6b 1d 20 3e
       0.31073362 -0.5106351 0.30527252 0.15636222
000250 ad fa 15 bd 28 29 14 3e 6f 88 e6 be 50 1f 8c 3e
       -0.036616016 0.14468825 -0.45025966 0.2736764
000260 89 6e fb be e8 b2 7f 3e 55 e6 38 be ab f6 be bd
       -0.4910777 0.24970591 -0.18056615 -0.09324392
000270 5a c4 0a be d8 b3 96 be 9e e0 91 3e 0d d9 e5 bc
       -0.13551465 -0.29434085 0.28491682 -0.0280576
000280 01 2b 9b bd 43 fd d9 3e 8f a6 41 3e e2 61 70 be
       -0.07576562 0.42576036 0.18911193 -0.2347484
000290 2a f0 fd 3d 5c 3b d3 3d 29 cf ae 3c be d9 95 3d
       0.12399323 0.10314056 0.021339016 0.07316922
0002a0 ad 8a 97 3d 4d 9d 86 3d c9 fa fc 3c a8 e4 eb 3e
       0.07399497 0.065729715 0.030881302 0.46072888
0002b0 20 aa c9 3d 7e 67 36 3e 8b 12 c1 bc d9 b5 cc 3e
       0.09846902 0.17812917 -0.023568412 0.3998249
0002c0 b8 b9 89 3d 07 5d 50 bd 22 fe 99 bc 11 5e 13 3e
       0.06724876 -0.050869968 -0.018797938 0.14391352
0002d0 b0 44 46 bb 92 91 d5 be fb 0b b1 be 1f 76 0b bf
       -0.0030253343 -0.41712624 -0.34579453 -0.54477113
0002e0 74 f7 a1 3d a1 97 be bd a9 7c 74 be c9 1c 5a 3e
       0.07908526 -0.09306265 -0.23875679 0.21300043
0002f0 12 97 ae bd b3 42 8c 3e 7e a4 8d 3e 3f d7 c3 bb
       -0.08524908 0.27394637 0.2766456 -0.005976587
000300 4e 52 84 be 0b d3 cd bd 25 b6 8d 3e 9b d0 3f bd
       -0.25844043 -0.10050019 0.27678028 -0.0468298
000310 7d ab 77 bc 28 6f c3 bc 5a 64 fb 3d 9e 54 4c 3e
       -0.01511657 -0.023856714 0.12275 0.19954154
000320 ff 24 87 be 1a d6 ba 3e 06 c1 85 be 65 bc 00 be
       -0.26395413 0.36491472 -0.26123828 -0.12571867
000330 08 f3 2e bd 72 52 25 3f 49 5d 5c 3e 6c 8a 91 bd
       -0.04271224 0.64578927 0.2151996 -0.0710648
000340 ba 10 9d be b0 34 57 bc 62 11 64 3e 2a 60 1b be
       -0.30676824 -0.01313512 0.22272256 -0.15173402
000350 5b 5f bb be db 12 5b bd c4 cf 84 3e 38 41 14 3e
       -0.36596188 -0.05348478 0.25939763 0.14478004
000360 70 d4 ae bd 09 4f 77 3e 85 94 6c 3d 11 81 34 be
       -0.08536613 0.24151243 0.057758827 -0.1762736
000370 e4 86 26 be 5c 74 9d be f5 47 b0 3e ea ba 5b bc
       -0.16262394 -0.30752838 0.344299 -0.013411263
000380 40 96 55 bc 82 d6 35 3d 3b 27 7e 3d 35 55 23 be
       -0.013036311 0.044394024 0.06204913 -0.15950473
000390 da 94 1a be 29 20 24 bf f7 01 ab 3e 48 e6 65 3e
       -0.15095845 -0.6411157 0.33399937 0.22451127
0003a0 80 8b 0e be bc 3e 45 be 86 51 a5 3b 85 7e 3a be
       -0.13920403 -0.19262213 0.0050451187 -0.18212326
0003b0 f4 a4 0b 3e 89 e6 83 3e b3 e5 84 be 7c bf dd 3d
       0.13637143 0.25761822 -0.25956497 0.10827538
0003c0 7b 4f 5f 3e 6d 71 fd 3d b6 62 d7 3d fe a4 fb 3e
       0.21807663 0.1237515 0.105168745 0.49149317
0003d0 80 50 1e be 2c ae 84 be c8 b7 10 3e 2e dd 28 bc
       -0.15460396 -0.25914133 0.14132607 -0.01030664
0003e0 4d 64 dc 3c 38 69 84 be 05 d1 2a 3e 2d 07 b0 be
       0.026903296 -0.25861526 0.16681297 -0.34380475
0003f0 d7 a7 2f be ad 4b b1 bd 5e 7f 24 be 5d ed 67 bd
       -0.1715387 -0.08657012 -0.16064212 -0.05662285

critic.2.bias f4 [64]
000000 11 a7 5a bf dd 36 fd 3e b1 a8 d3 be 14 2e 26 3f
       -0.85411173 0.4945592 -0.4133964 0.6491406
000010 09 df bd 3e 0f 06 ef be 89 59 1d bf 2c 56 1e bf
       0.37084225 -0.4668431 -0.61464745 -0.6185024
000020 9e d2 dd be 44 2b ca 3e 47 36 c4 3e a5 2a e5 be
       -0.4332475 0.39486134 0.3832266 -0.44759098
000030 d6 b7 e2 be 4a 10 ac be 58 27 07 3e d2 24 6f be
       -0.4428088 -0.33606178 0.13198602 -0.2335389
000040 2a 5e d0 3e e5 47 a8 3e a7 4b 70 be 01 36 c8 be
       0.4069684 0.3286735 -0.23466359 -0.39103702
000050 4f 57 46 be 30 05 d1 3e e6 c8 f6 bb 0e e3 a3 3e
       -0.19369243 0.4082427 -0.007531273 0.32009166
000060 94 60 db be bd 14 27 bf 28 38 67 be 24 8c 8e 3e
       -0.4284712 -0.6526602 -0.22580016 0.27841294
000070 66 67 ba be d9 10 0d bf c2 1c fc be ff 9c d0 3e
       -0.36407012 -0.5510383 -0.4924069 0.4074478
000080 ff f6 90 3e 7e c4 8a be 26 c8 ff 3e 25 b3 42 bd
       0.28313443 -0.27103037 0.4995739 -0.047534127
000090 aa a9 d9 3e 5c 5f 16 bf 1b a5 1e 3f 89 99 04 3f
       0.42512256 -0.58739257 0.6197068 0.51796776
0000a0 fb 85 3b be 3b aa 1f bf 62 da 02 3f 84 d5 38 3f
       -0.18312828 -0.62369126 0.51114476 0.722008
0000b0 bf a5 25 bf 0d 2a 1e bf e4 0f 84 3e bd a0 9e be
       -0.64706033 -0.61782914 0.25793374 -0.3098201
0000c0 63 cc 8d bd 21 af d0 3e 61 0c e3 be 4f e4 14 3f
       -0.06923749 0.40758613 -0.44345382 0.5816087
0000d0 fb 03 ff 3e da ef 11 bf 31 00 30 3f 3e ca c9 be
       0.49807724 -0.5700661 0.6875029 -0.3941211
0000e0 9f 14 82 3e cd 71 fc 3e 5d 34 e7 3e 30 d0 ee bd
       0.25406358 0.49305573 0.45157138 -0.11660802
0000f0 9f f8 19 3f 71 17 08 bf e9 87 1d bf 4e 02 61 be
       0.6014499 -0.5316077 -0.6153551 -0.21973535

critic.4.weight f4 [1, 64]
000000 5f 66 f3 bd a8 f7 31 bd 7d 9b 1d bd e5 7f a8 3d
       -0.1188476 -0.043449074 -0.038478363 0.08227519
000010 15 49 8b 3c c6 00 a2 bd 18 9a e1 bd f0 54 9c bd
       0.017002622 -0.07910304 -0.11015719 -0.07633388
000020 e0 7c 88 bd 41 6a 04 3d a1 80 50 3d da fa 5b bd
       -0.06664443 0.032327894 0.05090392 -0.053706028
000030 ac 33 c9 bc da 97 92 bd 82 5d 84 3d bf d4 39 bd
       -0.024560772 -0.0715787 0.06463148 -0.045368906
000040 31 07 80 3d 6f 41 87 3d f3 67 83 bd 57 5d 5f bd
       0.06251372 0.06604277 -0.06416311 -0.054532375
000050 cd c3 d8 bc 8f ca 7b 3d 8d e7 61 bd 77 33 c9 3c
       -0.026460553 0.06147247 -0.055152465 0.024560673
000060 75 7c 57 bd f5 92 e8 bd 8a 7f da bb 40 2a 59 3d
       -0.052608926 -0.11356155 -0.006668036 0.05301881
000070 29 98 09 bd 95 ab ad bd 23 ed d5 bc da ae 1e 3d
       -0.033592377 -0.08479992 -0.026114052 0.03874097
000080 82 0f 7a 3d 94 cb 9b bd 0a 32 aa 3d 46 23 57 bd
       0.061049946 -0.07607189 0.083103254 -0.052523874
000090 f1 6d 88 3d 93 91 5d bd 0a af af 3d 21 67 43 3d
       0.06661595 -0.05409391 0.08578308 0.047705773
0000a0 8a d1 0f bd 77 2a 20 bd 37 12 8d 3d 18 ce 8a 3d
       -0.03511194 -0.039102998 0.0688824 0.067775905
0000b0 cc 6a 52 bd ad 35 d9 bd c4 4e 50 3d e8 f0 0b bd
       -0.05137138 -0.10605941 0.050856367 -0.034165293
0000c0 b7 52 2e bd 56 0a 35 3d 94 e1 a0 bc 39 03 93 3d
       -0.04255935 0.04419931 -0.019638814 0.07178349
0000d0 47 48 96 3d 19 27 a7 bd 4d 14 7a bd d0 71 81 bd
       0.073380046 -0.08161754 -0.061054517 -0.06320536
0000e0 51 c9 95 3d b1 02 7a 3d 04 f6 18 3d b2 9c 13 bd
       0.07313789 0.061037723 0.037343994 -0.03603811
0000f0 0a 2e 5c 3d 7e f1 b5 3c b7 bb 64 bd 0c ae 60 bd
       0.053754844 0.022209879 -0.05584308 -0.054853484

actor_mean.0.weight f4 [64, 153]
000000 f9 fd ce bd 8e a4 5f bd e3 90 51 3d 85 4b 3a be
       -0.10107035 -0.05460029 0.051163565 -0.18192871
000010 30 24 d8 bd 64 e5 e2 3c 10 85 cc 3d 9e a3 e8 3d
       -0.10553777 0.027697273 0.09986317 0.113593325
000020 1a 73 96 3c 32 c0 a3 3d 15 51 4f 3e 32 2d 60 bc
       0.018365432 0.07995643 0.20245774 -0.01368265
000030 38 6d 68 bd 00 f3 ac bd 38 c3 06 be 7c 30 6e be
       -0.056744784 -0.08444786 -0.13160408 -0.23260683
000040 26 4a cb 3d fa 2f 40 3d d4 7b c8 3d 75 89 13 be
       0.09926252 0.046920754 0.09789243 -0.14407904
000050 f1 e6 f5 bb 7f 1c ee 3d ca 37 a7 3b a9 3d 01 3e
       -0.007504337 0.11626529 0.005103086 0.12621178
000060 0f eb d5 bd 9c 99 98 3c b8 1f 97 3d 0f aa 38 be
       -0.104452245 0.018627934 0.07379097 -0.18033622
000070 9d 05 e4 bd 27 73 8e bd 4f b0 bb 3d 9f 0b 07 3e
       -0.11133883 -0.06955557 0.091644876 0.13188027
000080 d2 af 4b 3d 7d 83 50 3c ed 7e 06 be ec d8 53 3d
       0.049728222 0.012726662 -0.13134356 0.051720545
000090 2b e7 1f 3e 4e d7 9f 3d 1f 08 9d 3d 50 63 ef 3d
       0.15615527 0.07804738 0.076675646 0.11688864
0000a0 90 4f 00 3c cf 47 71 bd e1 89 b9 be 81 8e 32 3c
       0.007831469 -0.058906373 -0.36238006 0.010898233
0000b0 02 99 fc bd ff 92 22 3d 9d 5b 4a 3e a8 55 3c bc
       -0.123338714 0.039690968 0.1976151 -0.011495031
0000c0 33 3e 19 be 6a ec 3d bd 78 7c 8b bd 67 ed 69 3e
       -0.14965133 -0.04636804 -0.0681085 0.22844468
0000d0 1e db 88 3d 6a 1a 8e bc f2 df 0a 3e 8e f4 a8 3c
       0.06682418 -0.01734658 0.13561991 0.020624425
0000e0 03 a6 98 bc d5 56 09 3e 7d 1d b8 bd 3b 1b 51 3e
       -0.018633848 0.1341203 -0.089899994 0.20420544
0000f0 78 a5 1f 3e 38 ce 69 3e cd e9 9a 3d 56 4f 15 3d
       0.15590465 0.22832572 0.07564125 0.036452614
000100 9a b0 c6 3c 44 0d 86 3e e3 22 dc 3d ae 01 6c 3c
       0.024254132 0.26181996 0.107488416 0.014404697
000110 e0 36 99 bc ab c7 c5 bc 6e 14 f1 bc 44 ea b8 be
       -0.018702924 -0.02414306 -0.029428687 -0.3611623
000120 8a 92 d3 bc 88 1b 0c bc eb ab 36 be 4c a3 9a bd
       -0.025826711 -0.008551486 -0.17839019 -0.07550678
000130 79 87 c2 3b 9b 01 91 bd 56 30 2b bd 3e bb 00 be
       0.0059365598 -0.07080384 -0.041794144 -0.12571427
000140 58 87 a3 bd 29 68 47 3d cc 58 da bd 22 b0 d7 3c
       -0.07984799 0.04868332 -0.10661468 0.026329104
000150 7f 41 bf 3d db fe ac 3c e7 00 e7 3d 6b f0 7e 3a
       0.09338664 0.021117618 0.11279469 0.0009725156
000160 f0 ad 60 be b8 ab af bd fd a2 2d 3d ca bb 88 bd
       -0.21941352 -0.085776746 0.042391766 -0.06676443
000170 a0 da 07 3d 9b ec 22 bd bc 83 dc 3d a7 a4 c0 3e
       0.03316748 -0.039776426 0.10767314 0.3762562
000180 58 2d 19 be 45 9e 9d 3e 7b 91 f4 3c 67 9d 5d 3e
       -0.14958704 0.30784813 0.029854527 0.21642075
000190 25 d1 04 be e9 55 20 3e e8 5a c2 bd 1e 5b 40 be
       -0.12970407 0.15657772 -0.09489995 -0.18784758
0001a0 79 72 c7 3d 7e ae ff 3c 55 d8 2d 38 ca 8a 28 bd
       0.09738631 0.031211134 4.144789e-05 -0.041147985
0001b0 55 c5 58 bd a1 b3 07 be dc de 05 3d 61 6f 53 be
       -0.052922565 -0.13252117 0.03268324 -0.20647956
0001c0 b9 40 01 be bf 4d ef bc 5f b5 d7 3d 1f c0 a9 3e
       -0.12622346 -0.029211877 0.10532641 0.3315439
0001d0 16 18 df 3c 5c 91 c8 3d b6 9b bd bd ae af 70 3e
       0.027233165 0.0979335 -0.09258215 0.23504516
0001e0 01 3c 0f 3d 4b a8 18 3d 35 06 e0 3d 6e 1a 35 3e
       0.034969334 0.03726987 0.10938684 0.17685863
0001f0 29 a7 b9 3e a0 ad 37 3c c5 84 7b be 51 44 da 3e
       0.36260346 0.011210829 -0.24562366 0.42630246
000200 92 61 c5 be 96 c7 aa 3e 08 71 44 bf 7f ea c2 be
       -0.38551003 0.33355397 -0.7673497 -0.3806953
000210 69 47 81 3e 78 e1 e5 be 12 94 a5 bc 5d d0 9d be
       0.25249794 -0.44898582 -0.020212207 -0.3082303
000220 d6 97 c5 be 07 81 05 3f e3 f1 15 be 2a 76 a9 3c
       -0.38592404 0.52150005 -0.14643054 0.020686228
000230 a0 34 ab be cf 79 38 3d 06 0a 8c 3c 7f 85 78 be
       -0.33438587 0.04503804 0.017094623 -0.24269675
000240 8b 52 b4 be 46 14 d3 bd d0 54 93 3d 94 96 ab be
       -0.35219225 -0.10306601 0.07193911 -0.3351332
000250 c7 45 8d be 57 38 8f 3e 22 d2 92 bd a7 e9 eb be
       -0.27592298 0.2797267 -0.07168986 -0.460767
000260 fa e0 d2 3d 5c 72 ca 3d 03 53 26 3d 12 34 89 be
       0.10296817 0.098850936 0.04060651 -0.2679754
000270 53 e2 64 3d 6a ce 59 3d a6 31 b8 3c e1 7d 37 3e
       0.055879902 0.053175367 0.022484612 0.17919113
000280 9c cd d7 3d 3b 35 f5 bd 07 3b 0b be 32 9f 1c 3d
       0.10537264 -0.119730435 -0.13596736 0.038237758
000290 ef 1e f0 3d cf 6a b9 be 2c 85 31 bd 57 44 b9 bd
       0.1172465 -0.362143 -0.043339893 -0.09046238
0002a0 7e 34 1f be 54 1a 3a be bc 48 1b bd 77 80 37 3d
       -0.15547368 -0.18174106 -0.03791116 0.044800248
0002b0 11 de 53 3d 68 d4 98 bd cc e7 86 3c 01 b0 5c 3c
       0.05172545 -0.07462388 0.016467951 0.013469697
0002c0 f7 93 c5 3d 6a 35 f6 bc d5 4b 2f 3d ce ff 5c be
       0.09647363 -0.030054767 0.04279693 -0.21581957
0002d0 63 f5 69 3a f4 21 0b 3e 8f 23 49 be b1 1c 88 be
       0.000892481 0.13587171 -0.19642471 -0.2658439
0002e0 01 d5 9b 3d ab ec 01 3e e0 80 86 bd d1 5b 2f bd
       0.07608987 0.12687938 -0.0656755 -0.042812172
0002f0 67 64 1a 3d 99 d8 54 bc 19 92 f1 3c 10 d4 1d be
       0.037693407 -0.012991094 0.02948861 -0.15412927
000300 49 e4 76 3d f2 87 eb bd a5 7d e8 bd 36 6a 02 be
       0.060276303 -0.11500539 -0.1135209 -0.12735829
000310 e6 87 ae bc 77 3e 1d bc de 15 28 3d 60 49 90 bb
       -0.021305036 -0.009597412 0.04103648 -0.004403278
000320 aa a7 42 3e b2 c6 b9 3c ca 7b a8 bd 93 7d 57 3d
       0.19009271 0.022677753 -0.08226736 0.05260999
000330 9a 34 28 3e c2 0b ce 3d 57 00 2a 3e d7 c4 dd 3d
       0.16426316 0.100608364 0.16601692 0.1082856
000340 4d 31 df 3d d1 29 bd bd 99 ab 3e 3d 66 cf 22 be
       0.10898075 -0.092364915 0.046550367 -0.15899429
000350 59 3a 83 bd cd 50 12 3d 07 bb c4 bb f2 00 83 bd
       -0.06407613 0.03572159 -0.0060037407 -0.06396665
000360 f4 c5 04 3d e2 40 42 3d 7f ec 8c bc 09 cb 64 3d
       0.032415345 0.04742516 -0.017202614 0.055857692
000370 14 c5 93 3d 1c c5 31 3d fb f2 e3 bd 05 0e 5c bd
       0.07215324 0.04340087 -0.11130329 -0.053724308
000380 07 24 94 bd 04 f8 56 3d 81 1b 00 3e 5e 6f 4a 3e
       -0.07233434 0.05248262 0.12510492 0.19769046
000390 61 1e 5c 3e 2a b5 b9 bd e9 70 ad be b8 52 c6 3d
       0.21495964 -0.090677574 -0.33875206 0.09683746
0003a0 ec a3 bb 3c 70 05 ba 3d 05 9f bf 3d 40 b0 1c 3e
       0.022905312 0.09083068 0.093565024 0.15301609
0003b0 0a c9 39 3e 87 70 b2 3d 0d ba f4 3d 1e fb 2f 3e
       0.18143097 0.08712869 0.11949549 0.17185637
0003c0 a7 c3 77 be 26 36 4b 3d 0c 47 8d be 73 b0 1b 3e
       -0.24195729 0.049612187 -0.27593267 0.15204029
0003d0 a4 e3 45 3e ca 65 87 3d 93 36 e3 3d 3a d4 38 be
       0.1932512 0.066112116 0.110943936 -0.18049708
0003e0 30 04 a1 3d 08 dc a9 bc 13 94 df bd 88 27 91 bd
       0.07862127 -0.020734802 -0.10916915 -0.07087618
0003f0 3d 0e 80 3e 68 11 06 3e f1 61 11 3e 56 10 25 3e
       0.25010863 0.13092577 0.14197518 0.16119513

actor_mean.0.bias f4 [64]
000000 10 78 fe 3c c6 33 aa bd 5a 11 b8 bc b4 11 ae be
       0.03106311 -0.08310656 -0.022469211 -0.3399788
000010 65 ca c7 3d 2b ad 81 be 8a 5b 23 bd 9f 15 34 be
       0.097554006 -0.2532743 -0.03988222 -0.17586373
000020 48 75 0a 3f ea e0 72 3e b7 9d 28 be 27 75 a9 3d
       0.54085207 0.2371861 -0.16466413 0.08274298
000030 ff 15 a3 3e bb de 89 3e 9f ad 99 bd c7 f2 d3 3d
       0.3185272 0.26927742 -0.07503819 0.103490405
000040 d9 7e 19 be 17 10 c0 3e e5 49 c4 3e 7b 96 15 3b
       -0.14989795 0.37512276 0.38337627 0.002282529
000050 6b 1c 0e bf f9 ee 2a 3e 73 f9 37 bd c2 66 ce 3e
       -0.5551211 0.16692723 -0.044915628 0.40312773
000060 4f 57 4c 3d f5 34 3c 3e cd 76 2b 3e e2 df 88 be
       0.04988795 0.18379577 0.16744538 -0.2673331
000070 c7 57 2b 3e 88 d4 90 bd 91 f2 0e 3e cc 2f 11 3d
       0.16732703 -0.07071787 0.13959719 0.035445973
000080 61 3d b9 3d d8 ff 21 3f 6e 6b ce bd 1f df 41 3e
       0.0904491 0.6328101 -0.10079084 0.1893277
000090 1b 3c bd 3d f7 6f 84 3e e6 f5 fd bd aa ea fa bd
       0.0923998 0.25866672 -0.12400417 -0.1225179
0000a0 f4 64 9b be 76 ae a4 3e 99 59 3f 3e 8c 94 38 3d
       -0.3035046 0.32164353 0.18686523 0.04506354
0000b0 27 cd a5 3e 0d 64 9d 3d 00 15 36 3d 79 bc c4 bc
       0.3238308 0.07685099 0.04445362 -0.024015652
0000c0 76 86 99 bc 29 13 6d 3e fe f5 8f 3e 6e 12 13 bd
       -0.018740874 0.2315184 0.28117365 -0.035906248
0000d0 89 ca 12 be 76 07 41 bc 93 b9 c2 bc 9b 01 9f 3d
       -0.14335074 -0.011781564 -0.02377013 0.07763978
0000e0 cd 81 15 be 3e d1 9d 3e e0 cd 94 3c d6 33 00 3f
       -0.14600296 0.30823702 0.018164575 0.50079095
0000f0 22 e1 77 3e 37 77 c3 3e 63 fe bf 3d 57 88 d5 3b
       0.24206975 0.3817689 0.09374692 0.006516497

actor_mean.2.weight f4 [64, 64]
000000 4b c5 b6 3e a6 3c 5c be eb b8 a6 be de 1c 23 bf
       0.35697398 -0.2150751 -0.32562956 -0.6371592
000010 c5 8a fd 3d 8e 36 92 3e 10 1c 93 be 5c 30 96 be
       0.12379984 0.28557247 -0.28732347 -0.2933377
000020 10 0f e9 3e bb c4 3e 3f 41 6c b9 be 54 e9 0b 3e
       0.45519304 0.74518937 -0.36215404 0.13663226
000030 47 bc b0 3e ce f6 37 be 1d 6b 48 be 6f 79 e2 3d
       0.34518644 -0.17965242 -0.1957211 0.11058318
000040 99 41 2c be 96 ee 0d 3f 05 78 82 bd f6 d9 a6 bc
       -0.16821899 0.5544218 -0.06370548 -0.020367604
000050 16 76 0a 3d f4 22 f9 bd 6f 3c 4e be 39 79 05 bf
       0.03380402 -0.1216487 -0.20140241 -0.52138096
000060 00 dd 66 be 7e 2a 7e 3e 3c d5 8a be 54 62 8d 3e
       -0.22545242 0.24820897 -0.2711581 0.2761408
000070 94 3a 27 3e 3d 95 26 3f fb 64 35 3d 0c 5b b3 3e
       0.1633094 0.6507147 0.044285756 0.350304
000080 74 bc ae bd c1 9e 6c be 3a fe 16 3f 73 31 b4 be
       -0.08532038 -0.23107435 0.5898167 -0.35193977
000090 2d 27 a1 bd b8 99 84 bd 4b a9 ca 3d 5b 48 36 3e
       -0.078688 -0.06474632 0.09895571 0.17801039
0000a0 11 57 9c be b8 da 13 3f fb 68 0c 3e 65 7d bd bc
       -0.30535176 0.57755613 0.13711922 -0.023131082
0000b0 73 7e 62 bd 7f 19 97 bd 1c 1e 62 be 16 7a 62 3e
       -0.055296373 -0.0737791 -0.22081798 0.22116885
0000c0 b4 d2 23 bf de b1 3c 3e b6 df 25 3f 02 0c 07 bf
       -0.6399338 0.18427226 0.6479448 -0.527527
0000d0 47 50 24 3e 77 4c d6 3e 22 52 d2 be 54 96 81 3d
       0.16046248 0.41855213 -0.41078287 0.06327501
0000e0 6f b2 1d be f4 cd ef 3c 6b ef 85 be ad 09 8a 3d
       -0.15400098 0.02927301 -0.26159224 0.06740127
0000f0 dd c2 b6 be 23 64 71 bd d1 d6 91 be d5 58 bd be
       -0.35695544 -0.05893339 -0.28484204 -0.36981836
000100 10 99 24 3e 66 45 48 bf 4f 29 3d 3e 39 7d ca be
       0.16074014 -0.78230894 0.18472789 -0.39548662
000110 69 6a 93 be 0e 72 bc bd 76 d1 dc 3d eb 2c 8f bd
       -0.28792122 -0.09201442 0.10782139 -0.06990989
000120 2b d9 d8 3c 72 ad 10 3f 54 63 f8 be 2f 79 74 bc
       0.026470741 0.56514657 -0.4851328 -0.014921471
000130 38 2b 9c be 09 9b 8e bd db d4 33 3e 8b d1 19 3e
       -0.30501723 -0.06963164 0.17561667 0.1502134
000140 0e 91 f9 3d a7 35 5c bc 3c 45 23 bf f5 3a 52 bd
       0.1218587 -0.013440526 -0.6377752 -0.051325757
000150 a0 ec b2 3d 24 4f 06 3e f3 ac 15 3e f4 31 e3 be
       0.08736539 0.13116127 0.14616756 -0.4437405
000160 8d ca 45 3e 03 b9 14 3f f3 1b a0 3d b0 bf 8f 3e
       0.19315548 0.58094805 0.07817831 0.28075933
000170 74 05 5d be c8 94 29 bf 28 2c 80 be d5 51 6e bd
       -0.21584111 -0.6624265 -0.2503369 -0.05818351
000180 9d 14 2b be fe 8e 02 bd 86 74 89 be b4 61 de be
       -0.16707082 -0.03187465 -0.26846713 -0.43433917
000190 b6 ea 4b bc 6f 88 de be de d0 2e 3f c7 74 21 be
       -0.012446096 -0.43463466 0.68287456 -0.15767203
0001a0 5e cc 59 3e 1f d7 d8 3e a1 e4 f1 3d c5 2d 5f be
       0.21269366 0.42351624 0.11811186 -0.21794803
0001b0 01 dc 28 3e 48 47 24 be 59 84 10 bf 28 6e 6a 3e
       0.16490175 -0.16042817 -0.56451946 0.22893584
0001c0 f5 81 60 3e 64 14 af bd 23 a4 c8 bd 83 d2 8b be
       0.21924575 -0.08548811 -0.097969316 -0.27309045
0001d0 10 33 a3 3e 97 76 ad be f7 bb d8 3e 4e 9a bb 3e
       0.31874895 -0.3387954 0.42330906 0.36641163
0001e0 48 0d c5 bd 3d cd 04 3e 20 5f d2 be a1 2a dd 3e
       -0.09621674 0.12968917 -0.410882 0.43196586
0001f0 a3 59 ca be cd 16 2a 3f 92 09 8a 3e 5f 54 f6 3e
       -0.39521512 0.6644104 0.26960427 0.48111245
000200 e1 56 cc be 58 9e 13 3e 49 41 53 bf 14 c5 06 bf
       -0.39910033 0.14415872 -0.8252149 -0.5264447
000210 b9 9c 82 be 29 88 03 3f 3a 6e 3e 3b aa ab 9c be
       -0.25510195 0.5137964 0.00290574 -0.3059972
000220 ea 3d 38 3e 12 85 cc 3e e5 31 f1 be 51 4d 84 3e
       0.17992368 0.39945275 -0.4710838 0.25840238
000230 f5 1e 9f 3e 20 28 17 3e 2b f5 e5 be f8 ce 84 be
       0.31078306 0.147614 -0.4491361 -0.25939155
000240 64 e3 7f be 4b d1 03 3e b9 01 62 bf 10 1d 87 3e
       -0.24989086 0.12872808 -0.8828388 0.2638936
000250 5a 92 44 be 02 d9 26 3f 9c 63 be 3c 66 d7 37 be
       -0.19196454 0.6517488 0.023240857 -0.17953262
000260 21 ef 25 bf 2d 2e 86 be 2c 38 2c be f3 f7 a8 3e
       -0.64818007 -0.26207104 -0.16818303 0.3300167
000270 e1 d2 1e 3e d5 ee 08 3e ce 3b 7f 3e 67 47 85 3d
       0.15510131 0.13372357 0.24925157 0.065077595
000280 ee 42 88 be 70 ee d8 be 78 13 33 3e 44 3d 10 3d
       -0.26613563 -0.42369413 0.17487895 0.035214677
000290 45 7c ce bd e0 ae f0 3d af 34 ad be cb 02 de bd
       -0.10082296 0.11752105 -0.33829257 -0.108403765
0002a0 bf ec 78 3e d2 bb 68 be 23 a7 5c 3c ea dc 08 bf
       0.24309061 -0.22727898 0.013467583 -0.5346209
0002b0 a0 47 40 be b1 a0 08 3e 0f fe c5 be 30 cd 1c 3f
       -0.18777323 0.13342549 -0.38670394 0.6125059
0002c0 03 51 60 3c 25 9f c6 be 89 66 b2 bd d1 76 44 bf
       0.01369119 -0.38793293 -0.08710963 -0.767438
0002d0 92 b9 aa be e3 fd 12 3d 30 23 03 be 31 1c 09 3f
       -0.33344704 0.035886656 -0.12806392 0.5355864
0002e0 0a 5f 09 be 7e 3d 6b 3e a2 14 0f 3e 11 18 24 be
       -0.13415161 0.22972676 0.13972715 -0.16024806
0002f0 2d 1d 81 3d 09 96 a4 be 17 a4 bd 3d 9e 09 45 3e
       0.06304393 -0.32145718 0.09259813 0.1924195
000300 ca 71 a0 3e db 1c fb be 66 b6 d1 3c b4 44 86 3e
       0.31336814 -0.49045452 0.02559967 0.2622429
000310 2c 0b 0a 3d 7c 48 c1 3e 92 ab 02 3e 07 ea 06 bf
       0.03370206 0.37750614 0.12760761 -0.5270085
000320 24 1a c5 3d 84 7e 8c bd 65 98 7e 3d 6e 2b 08 bf
       0.096241266 -0.068600684 0.062157054 -0.5319127
000330 c5 04 58 bd 1e ff ef bd 7d 04 b8 3e fe 4a b3 bd
       -0.052738924 -0.117185816 0.35940924 -0.08754538
000340 65 d5 a2 3c 9c 48 1d bf da 1f 0b 3f 45 93 f1 bd
       0.019877145 -0.6143892 0.54345477 -0.117956676
000350 c8 57 8d 3e 67 73 94 be c6 3c ea 3b 87 28 be be
       0.27606034 -0.28994295 0.007148358 -0.37140295
000360 61 18 b3 3e 91 9b 8e 3f 98 21 93 3e a5 35 3a 3e
       0.34979537 1.1141225 0.28736567 0.18184526
000370 b5 a9 98 3e c8 db 80 be 53 fb 85 be 4e 3d 64 3d
       0.29816976 -0.2516768 -0.26168308 0.055722527
000380 c4 c7 cc 3d 1d 29 9c 3e c0 d0 3d bd 91 50 ae bd
       0.0999904 0.30500117 -0.046341658 -0.085114606
000390 b4 50 f3 bd a5 66 f7 3d e9 df ca 3d 79 83 24 3f
       -0.11880627 0.12080125 0.09905989 0.6426311
0003a0 e5 17 c7 3e 34 6b 17 3f b8 6c 3c 3e 9e 00 65 3e
       0.38885418 0.59147954 0.18400848 0.22363517
0003b0 d5 4e bc 3e 10 ca 7f be fc 96 7f 3e 2c 01 29 bf
       0.36778894 -0.24979424 0.2495994 -0.66017413
0003c0 f3 22 32 be 13 4b 77 3e fd 10 94 3e ce a7 82 3d
       -0.17396145 0.24149732 0.2891921 0.063796625
0003d0 c7 89 5d be de 0d b6 3d 7b e0 0d 3f 76 78 b0 bc
       -0.21634589 0.08889364 0.55420655 -0.021541815
0003e0 9d 82 09 3e 95 c8 8c bd 16 33 2b 38 05 25 24 3d
       0.13428731 -0.068741955 4.0817155e-05 0.040074367
0003f0 38 e0 37 3e 7b 99 33 3f 35 5d 34 be 8f e3 18 bd
       0.17956626 0.7015607 -0.1761368 -0.03732639

actor_mean.2.bias f4 [64]
000000 52 12 e1 3d e3 c5 20 be d4 a0 9b be b7 f8 3a be
       0.109898224 -0.15700488 -0.3039614 -0.1825894
000010 ad 7a c7 3d d8 b9 0e bf c1 26 6c 3e 53 16 1f be
       0.097401954 -0.55752325 0.23061658 -0.1553586
000020 e6 7f f6 3c ab 12 b4 be 09 c8 41 be d6 22 cb 3e
       0.030090284 -0.35170493 -0.18923964 0.39675015
000030 62 aa 06 be 5a 23 14 3c 1e 8c 0d bf 0c 8d 62 3d
       -0.13150933 0.009041632 -0.55291927 0.055310294
000040 d8 e6 44 be a2 90 96 3e 85 25 29 3e 4f 96 0a be
       -0.19228685 0.2940722 0.16518219 -0.135339
000050 40 dd 91 be 49 f1 2a 3f 70 a5 d2 be 96 dd fe bd
       -0.28489113 0.6677442 -0.41141844 -0.12444608
000060 92 ff c8 3c f9 63 d8 3d a1 f7 7a be 7e 27 45 3c
       0.024535928 0.10565943 -0.24508525 0.012033341
000070 c3 cf 23 be 70 06 8c 3e 62 b5 48 3e 37 48 c2 be
       -0.15997224 0.2734866 0.19600442 -0.3794572
000080 37 82 1e 3c 7e 59 01 bf 10 74 99 3e 58 af 56 be
       0.0096746 -0.5052718 0.2997136 -0.20965326
000090 57 a7 86 be 43 dc a5 be a7 3b c4 3d f0 b1 68 3d
       -0.26299545 -0.3239461 0.0958169 0.05681032
0000a0 e7 a8 b6 3e f5 97 60 3e ae aa 51 3d 7d e6 8c bd
       0.35675737 0.21932967 0.051188163 -0.068799
0000b0 2e ce 96 be e3 ec 33 3e 22 a5 3e be b1 cc b8 be
       -0.29454178 0.17570834 -0.1861768 -0.36093667
0000c0 24 4a 71 be cf 14 05 3e cc 1e 2f 3e 22 b8 e3 3d
       -0.23563439 0.12996219 0.17101592 0.11119105
0000d0 49 3c 1f be 44 ca 27 be 7d 1e d5 bc c2 22 18 bd
       -0.1555034 -0.16385752 -0.026015515 -0.037142523
0000e0 d0 6c 94 3d 9f 54 aa bd 80 f4 c3 be 85 78 7a bd
       0.07247317 -0.083169214 -0.38272476 -0.061150093
0000f0 d9 ef c9 bd 5f e8 df bd a5 12 9c 3e 1a 8e 25 3f
       -0.098602004 -0.10932993 0.30482975 0.64669955

actor_mean.4.weight f4 [8, 64]
000000 ec 6a ec bd 2d ce ae be f1 dc 2d bf 04 f7 87 3e
       -0.11543831 -0.34141675 -0.67915255 0.26555645
000010 32 3e 49 3c b0 98 aa be 6a 83 97 3d ea f9 f7 3e
       0.012282895 -0.33319616 0.07398112 0.48432857
000020 ce cf 0a 3f c5 96 99 be ea 34 b4 bf 7a 0a 85 3c
       0.54223335 -0.2999784 -1.4078648 0.016240347
000030 9d 90 0f bf 53 72 c5 be 2a 2f ba be f1 90 f8 3e
       -0.5608004 -0.38563785 -0.36364108 0.48548082
000040 09 83 94 3e ea 20 e1 3e f1 b4 58 3f 37 d9 a2 bf
       0.29006222 0.43970424 0.84651095 -1.2722539
000050 e1 0a 22 bf 15 f9 9d 3f 80 42 22 3d 2a c6 0c bf
       -0.6329785 1.2341639 0.0396142 -0.54989874
000060 7b 9d 1a 3f 84 01 ce be 45 32 4a bf 36 91 b7 3e
       0.60396546 -0.4023553 -0.78982955 0.35852975
000070 24 4f a2 bf dd 12 82 3f 60 e8 0c 3e 6e 4c 8d bf
       -1.2680402 1.0162007 0.13760519 -1.103895
000080 7a 79 ec 3f 33 e3 c7 bf ba 42 f3 3e 12 49 47 3f
       1.8474572 -1.5616211 0.47511846 0.7784587
000090 c0 86 b7 3e bc d9 85 bf 4b 34 e8 3e 24 5c 6d 3f
       0.35844994 -1.0457072 0.45352396 0.9271872
0000a0 45 c4 08 3f 2c ba d7 be 52 d5 c2 be b2 4e 8d 3e
       0.53424484 -0.42134225 -0.38053375 0.27599102
0000b0 d1 97 76 bf c5 a0 11 be 77 4d 9d bf 2e c3 d7 bd
       -0.96325403 -0.14221485 -1.2289265 -0.105352744
0000c0 c6 fd c8 bf ef c0 49 3e 51 ce 22 3f 61 8b 90 bf
       -1.5702446 0.19702505 0.63596064 -1.1292535
0000d0 15 21 07 bf 72 c8 02 3e 9f 64 20 bf 74 fb 14 be
       -0.52784854 0.12771776 -0.62653536 -0.14549047
0000e0 6e 81 1d bf c5 78 d0 bd e0 37 3d bf 3f 06 19 be
       -0.6152562 -0.10179285 -0.73913383 -0.14943789
0000f0 37 34 09 bf c5 63 57 3f 3b 7c 15 3f 6b 40 ad 3e
       -0.535953 0.8413661 0.58392686 0.3383821
000100 e9 ca c6 be 5b fb 88 3f 73 a3 a5 3c d4 1e fb bc
       -0.38826683 1.0701708 0.02021954 -0.030654348
000110 f9 96 03 bf 1e 53 3c bd f8 5a 65 bf 8b 98 b9 bf
       -0.5140224 -0.045977704 -0.8959193 -1.4499677
000120 08 7d 2e bf 68 40 9c 3e 35 3c 8c bf de d0 9f be
       -0.6815953 0.30517888 -1.0955874 -0.3121404
000130 c9 e7 30 bf 81 55 85 3f cf 2e a5 3d 6c cd b7 bf
       -0.69103676 1.0416719 0.08065569 -1.4359565
000140 1b 0c 05 bf e0 9b 4a 3f d0 60 12 bd 9f 4f 3b bf
       -0.51971596 0.79144096 -0.03573686 -0.7316837
000150 89 9a 1d 3f 62 6f 5e bf 75 61 b5 be 6f 33 2e bf
       0.61563927 -0.86888707 -0.35425916 -0.6804723
000160 da df 7a bf a0 c9 a6 3e 3e d4 19 bf 89 6b f8 be
       -0.9799782 0.32575703 -0.6008948 -0.48519543
000170 59 b5 a1 3f ef b0 10 bf fb fb be be af d8 e8 3d
       1.2633468 -0.5651998 -0.3730162 0.11369454
000180 d9 5d 49 3e a8 09 2e 3f 48 f7 a7 bf 12 1c e3 3e
       0.19664706 0.67983484 -1.3122339 0.44357353
000190 45 61 3d 3f 85 3b b7 3e e9 39 08 bc 7e ca a9 be
       0.73976547 0.35787597 -0.008314588 -0.33162302
0001a0 29 ee 80 be 12 8c 9d bf 30 e6 10 3e e8 28 86 3f
       -0.25181702 -1.2308371 0.1415031 1.0481234
0001b0 50 46 6d be cb ea 13 bf 43 8d 2a 3e 73 7a 02 bf
       -0.23171353 -0.5778014 0.1665545 -0.5096809
0001c0 a0 72 bd 3d cc 24 ac be 45 b2 00 be 6d 0f 1d 3f
       0.092503786 -0.33621824 -0.12568004 0.6135166
0001d0 d2 77 29 bf ba 5d 42 3e ed d4 92 3e 99 d3 4b 3f
       -0.66198456 0.18981066 0.28678074 0.7961975
0001e0 09 49 ba be bc 66 c2 bf 8f bb f5 3e 47 e7 4a 3e
       -0.36383846 -1.5187602 0.47994658 0.19814788
0001f0 e0 1e c9 3e 50 6c 8b bf 12 c8 07 bf d9 f9 3b 3f
       0.39281368 -1.0892429 -0.5303966 0.7342811
000200 d3 d0 13 bf b6 80 7b be 31 2b 10 3f b6 cb 5e bf
       -0.57740515 -0.24560818 0.56315905 -0.8702959
000210 37 04 23 bf 69 a3 4c 3f 02 40 7b bf 2a 27 39 3f
       -0.63678306 0.79936844 -0.98144543 0.72325385
000220 40 d3 f7 3e ce f4 a6 be 13 26 8e 3f fc bf 8e bf
       0.48403358 -0.32608646 1.1105369 -1.1152339
000230 97 2b ac 3e 67 86 fd bd c3 63 a6 be 39 19 db bd
       0.33627006 -0.12379151 -0.32497987 -0.1069817
000240 48 07 36 3f 37 ad 92 be dc a1 8b bf 00 f4 65 bf
       0.7110486 -0.28647777 -1.090877 -0.8982544
000250 71 18 f0 be 7b 45 4e 3e 71 22 f3 be d5 9e 2d 3f
       -0.46893647 0.20143692 -0.47487214 0.67820483
000260 5b aa b5 3e 7f 7e 18 be 66 18 64 bf be d3 26 3f
       0.35481533 -0.14892004 -0.8909973 0.6516684
000270 ea 4c 54 3f f9 d0 2b bf 6c d9 63 3f 97 4c 99 be
       0.8292986 -0.6711574 0.89003634 -0.29941246
000280 bf 65 78 3f 8e 55 6f bd 20 34 11 be eb 22 97 be
       0.9703025 -0.0584312 -0.1418004 -0.29518828
000290 ab c9 97 3e 27 32 59 be 2c 29 76 3f 72 75 fc 3e
       0.29646048 -0.21210538 0.96156573 0.49308354
0002a0 38 1a d6 3d 49 f5 ed 3e 11 f7 18 3f e7 23 54 be
       0.104542196 0.464762 0.59751993 -0.2071682
0002b0 4b 55 dd be fa 96 9e bf a3 0d 9e 3c 25 13 b2 3f
       -0.43229136 -1.2389824 0.019293612 1.3912092
0002c0 b5 2a 61 bf 61 cc b4 bf f5 35 0b 3e ee 89 20 3d
       -0.8795579 -1.4124871 0.13594802 0.03919404
0002d0 dc b0 a2 3f 80 06 36 3f fc 3e 01 3e aa a2 ab 3f
       1.2710223 0.7110367 0.12621683 1.3409016
0002e0 da cd 6f 3f b5 dd 46 3f 97 bc 37 be ce fd 6b bf
       0.9367348 0.7768205 -0.17943035 -0.9218415
0002f0 1b 7c 51 bf e6 11 9c 3b d2 9b 7a 3f 9a 04 aa be
       -0.81829995 0.004762876 0.9789401 -0.33206636
000300 84 b2 25 bf d4 3b f6 be b3 79 c3 be 09 a5 9a 3e
       -0.6472552 -0.4809252 -0.38178787 0.30204037
000310 b6 17 c0 be 46 0d 98 3f aa ab 2c 3f d4 93 a9 3f
       -0.3751809 1.1879051 0.6744944 1.3248239
000320 45 ab ae 3f e4 a9 77 3f 32 b9 d9 bd 46 6b 32 bf
       1.3646017 0.9674361 -0.10631026 -0.69694936
000330 a7 8a 7a bf e6 1d 86 bf 6f b7 2e bd c5 e7 82 3f
       -0.97867817 -1.0477874 -0.042655405 1.022698
000340 7f 8a 3b 3f 1a e2 c3 bf 62 6a a9 bd 5c d7 15 3f
       0.73258203 -1.5303376 -0.08272244 0.5853174
000350 e3 46 c8 be 67 99 ad 3d e2 d9 91 3f bd 8d 9c 3d
       -0.39116582 0.08476525 1.1394618 0.07644222
000360 e3 78 3c 3f 24 65 52 bf 9b 68 ef be 14 52 ae 3e
       0.7362196 -0.8218558 -0.46759495 0.34046996
000370 58 f5 91 bf 36 67 03 3f 76 2f 3e 3f 37 e1 04 3f
       -1.1402998 0.5132936 0.7429117 0.5190615
000380 b5 d7 f1 3e 0d 88 d4 3d ff a5 31 3f 16 02 1c 3f
       0.47234884 0.10377512 0.69393915 0.6094068
000390 e8 da e3 3d a8 b9 ab 3e 2a d4 51 be 28 51 fd bd
       0.111257374 0.33540082 -0.2049109 -0.12368995
0003a0 9b d5 e6 3d 06 53 0d 3f 8c 04 73 3e c7 c8 27 bf
       0.11271211 0.5520481 0.23732203 -0.65540737
0003b0 f3 e3 04 be 44 87 44 bf e2 28 23 bf fc 69 b9 bd
       -0.1297758 -0.767689 -0.6373426 -0.09053418
0003c0 de 52 56 3f d1 e7 bf be 4b 0c e4 3f 81 6e c6 bf
       0.83720195 -0.3748155 1.7816252 -1.5502473
0003d0 38 25 5b 3e 05 6a 89 3f f3 e5 20 be bc ad 57 bf
       0.21400917 1.073548 -0.15712719 -0.8424947
0003e0 81 d5 3a 3f 82 6b b2 3e 1f d2 b2 3e 94 bb 05 3e
       0.7298203 0.34847647 0.34925935 0.13059837
0003f0 71 51 54 bf 10 ad e8 3f 10 93 9f be 3a fa 55 bf
       -0.8293677 1.8177814 -0.31166887 -0.8358494

actor_mean.4.bias f4 [8]
000000 7f 0a 35 3f cb 3b 83 be c6 29 99 bc 3d bc a9 be
       0.7071914 -0.25631556 -0.018696677 -0.33151427
000010 7a f5 96 be 68 02 c8 bd 14 b6 2a 3f b0 a1 e5 3e
       -0.2948416 -0.09766084 0.6668408 0.4484992
