mmjc_env/envs/steering_policy/maz-001-rev3-forward.pt (torch, 119372 bytes, 12 tensors)

actor_logstd f4 [1, 8]
00000000: c56b 3340 f096 2f40 ee54 4c40 c6b6 2c40
00000010: 8f3c 2040 dbd3 3140 bcba 3740 e0e9 2b40
2.8034527 2.7435875 3.1926837 2.6986556 2.5036962 2.7785556 2.8707724 2.6861496

critic.0.weight f4 [64, 153]
00000000: caca 3b3c 30d4 a53d 47b9 c53c 4318 4ebd
00000010: ddf5 073e 631e 2e3d 0e70 9c3d be6a 2bbe
00000020: 61be debb 1c62 25be ebd5 5a3d 0121 213e
00000030: e3ac 393e 7fcd 47bc db4b 24be 2ea4 04bd
00000040: 2c4d ddbc a71f 18bd 99be 253e a2e3 383d
00000050: fb07 9cbc 2b80 ca3a 435b 0b3e f55e 883d
00000060: 7e7c 243e 8bbe 473c 015c 47be 68a9 c4bc
00000070: 6120 e23d 0063 87bd 51c8 ebbd 2cc6 973d
00000080: dc30 143e a838 c4bd 7dac 593e ed92 19be
00000090: 1ac7 1dbc aba0 21bd 54e3 733e 58a0 cd3e
000000a0: d90d f63d c2d8 30be b1bd 1dbe 9c2b e2bb
000000b0: 4631 44bd 9d82 593e bbac 81bd bf64 9c3c
000000c0: f5e2 94ba ef65 09bd 3c90 debd 5cc3 823d
000000d0: bb3a 043e 0ccc f6bd 0468 a13d 748f 5cbe
000000e0: e4ad ffbd 5d3a 113d cb9d 003e 62b2 9c3d
000000f0: 1fef 413d 07c8 25be 4451 7d3d d0ab a2bd
00000100: cf72 953d 526e 40bc b5b7 f6bd 98b2 e83c
00000110: cdef 65bd e017 59bc 978e d93d b7d4 bfbd
00000120: 1a80 a9bc 8b18 4cbc c97b e93a c0c0 2b3d
00000130: 024b 9f3d 3fbc 0cbe 8470 0ebe 7ad1 083e
00000140: d586 e5bc 376b 0cbe 8c39 763d edd5 2b3d
00000150: e8f5 eebc b62e 273e e366 233d 0ad2 023e
00000160: 6ad7 9d3d 7a73 d83d 08f0 1fbe 0c5a 59be
00000170: 05d4 d9ba 0922 883e 55b8 0e3e f893 2d3c
00000180: 53f0 02be 7408 76bd cb3a 4fbe 4204 a4bd
00000190: 4f98 03bd 1dad 813d 93e2 ee3d bd2f 7abe
000001a0: 348b d83d 5a12 f33d 43b8 83be 017d bb3d
000001b0: 5bd2 7e3c c03a 883c b413 9dbd 32ef 273e
000001c0: e998 18bd 6cce a3bc c510 21bd a5f5 4fbd
000001d0: 3ad1 6c3e be78 25bd 72fb 173e 6fe0 e33d
000001e0: 16c1 e73d 8d4c dcbb c3bd da3d 3461 103b
000001f0: 6227 363e c334 263e a166 44bd e090 49be
00000200: 0acd a73c 5bfe a4be 71f4 6c3e 7bfd 48be
00000210: f99d 8cbc d92d 013d 930a aebc 954c ea3d
00000220: 94eb 313e 8944 943e 65e9 803b 9f05 d7bd
00000230: da0c 45be 1754 b83d 4539 09bd d96d c2bd
00000240: f99e 97bb 1870 14bd 8841 3f3d 9ac2 a9be
00000250: f3b6 b43e d8b1 3d3f 5742 44be f748 eebc
00000260: a5bd 3ebe 0728 19be 7009 843e ce32 2bbe
00000270: ab4c 153d 304a d33c d495 dc3d d280 90bd
00000280: ff3b c1bd 6465 c2bc 384c 253d 4146 b0bb
00000290: 3d46 e7bd ec6f bc3d 32a9 ff3c f00a 01bd
000002a0: 4478 6bbe 5b48 abbc b8c4 a5be 0726 afbb
000002b0: 373e 453e ce1b 51bd 9445 c4bc 71ab 903d
000002c0: aa61 863d 360a 663c 6150 a63d 8d63 d63d
000002d0: 53c4 bbbd 1c7d 0abe 48e1 a5bc 63ea 003e
000002e0: 0d5b a9ba b3d5 55bd 521a ea3c deec 0c3e
000002f0: 734e ba3e 5a12 4a3d 56fa dcbd 70b7 1bbd
00000300: 4db7 383d 0f67 d5bd 0f29 013d 64d0 ed3d
00000310: 41c9 04bd 5f0f 22be 36fb 20bc 7413 a13d
00000320: b8b3 99bc 0193 09be ae0b 813c dac1 babd
00000330: 4e56 3f3e 2340 f93c d796 94bd 62cb 65bd
00000340: 2b99 303d f3e8 113c 77f6 38be 61d7 9fbc
00000350: f432 333d a333 9f3d b47c bfbd 769a 37be
00000360: 73e3 8ebd c92c 36be 18f8 f0bc e73f afbd
00000370: 8f9a a6bc 22b9 973d 8ca8 04be 3386 dbbd
00000380: 3c59 1f3e f2d2 9e3d 78d4 27bd dd0e 98bd
00000390: ae53 e7bd 485c 57bc 0c74 533c a9cb 7b3d
000003a0: fcd9 20be aed2 88bd 9c19 21be d884 16bc
000003b0: fef5 af3c 6535 9bbd 68b2 ccbb 7d2d a73d
000003c0: e6b0 94bd aeaa 1ebd 896d 643d 5979 a4bd
000003d0: f888 e33b 0433 24bd af21 1b3d 0d95 053e
000003e0: e314 08be 3595 9bbd 4f42 3bbe b935 c83d
000003f0: 8c6e bb3e 69af 17be 42a2 82bc d030 eb3d
0.011461923 0.08097112 0.024136199 -0.050316107 0.13277383 0.042509448 0.0763856 -0.16739938
-0.0067975973 -0.16150707 0.053426664 0.15735246 0.18132357 -0.01219499 -0.16044562 -0.032383136
-0.027014337 -0.03713956 0.16185988 0.045138963 -0.019046774 0.0015449574 0.13609032 0.066587366
0.16063115 0.012191425 -0.1946869 -0.02400656 0.11041332 -0.066106796 -0.11512817 0.07410845
0.14471763 -0.09581119 0.21257205 -0.14997454 -0.009629989 -0.039459866 0.23817188 0.40161395
0.1201436 -0.17270187 -0.15404393 -0.0069021713 -0.047898553 0.21241231 -0.06331774 0.019091008
-0.0011359142 -0.033544477 -0.10867354 0.06384918 0.12913029 -0.120506376 0.078811675 -0.21539098
-0.12484339 0.03545605 0.12560193 0.07651211 0.047347184 -0.16189586 0.06184508 -0.07942927
0.072972886 -0.011745052 -0.12046758 0.028405473 -0.056136895 -0.013250321 0.106229 -0.09366744
-0.020690966 -0.012457023 0.001781338 0.041931868 0.077779785 -0.13743685 -0.13910109 0.13361159
-0.028018394 -0.13712774 0.060113475 0.041952062 -0.029169992 0.16326413 0.039893042 0.12775436
0.077071026 0.105689004 -0.15618908 -0.21225756 -0.0016618973 0.26588467 0.13937505 0.0105943605
-0.12786989 -0.060066655 -0.20237271 -0.080086246 -0.032127675 0.06331847 0.11664309 -0.24432273
0.10573426 0.11868735 -0.25726518 0.09154702 0.015553082 0.016629577 -0.07669774 0.1639984
-0.0372552 -0.01999589 -0.039322633 -0.050771374 0.23126689 -0.04039835 0.14842013 0.11126792
0.11316125 -0.0067229928 0.106807254 0.0022030594 0.17788461 0.16231064 -0.047949437 -0.19684172
0.020483512 -0.32225308 0.23140122 -0.19627945 -0.017165171 0.031537864 -0.021245277 0.11440388
0.17375022 0.28958538 0.003934073 -0.10499119 -0.19243184 0.09000414 -0.033501882 -0.09493608
-0.0046271053 -0.036239713 0.046693355 -0.33156282 0.3529583 0.74099493 -0.19165932 -0.029087527
-0.18627031 -0.14956675 0.2578845 -0.16718599 0.03645007 0.025792211 0.10770765 -0.070558205
-0.094352715 -0.023729987 0.04035589 -0.0053794687 -0.11292694 0.09201035 0.031208608 -0.03150457
-0.22995096 -0.020908525 -0.32376647 -0.0053451094 0.19262014 -0.051051907 -0.023958959 0.0706395
0.06561597 0.01404052 0.081208 0.104682066 -0.09168305 -0.13524288 -0.020249024 0.12589411
-0.0012920812 -0.052205753 0.028577004 0.13762233 0.36387977 0.049333908 -0.10789935 -0.038016737
0.045096684 -0.104200475 0.031533297 0.11612013 -0.032418493 -0.15826176 -0.009825518 0.078650385
-0.018762454 -0.13434984 0.01575264 -0.091190055 0.18685266 0.03042609 -0.07255333 -0.056102164
0.043114822 0.008905637 -0.18062769 -0.01951188 0.043749765 0.07773521 -0.09349957 -0.17930016
-0.06976976 -0.17790522 -0.029415175 -0.0855711 -0.020337371 0.07408358 -0.1295492 -0.10718956
0.15561384 0.077550784 -0.04097411 -0.0742471 -0.112952575 -0.01314456 0.012906086 0.061473522
-0.15708154 -0.06680809 -0.15732425 -0.009186946 0.021479603 -0.075785436 -0.0062468536 0.08162973
-0.07260303 -0.03873699 0.055768523 -0.08030958 0.006943818 -0.040087715 0.03787392 0.1304514
-0.13289218 -0.07596818 -0.18287013 0.09775872 0.36607778 -0.14813007 -0.015946511 0.114839196

critic.0.bias f4 [64]
00000000: 3108 aabe 468f 9ebe c3cb 9cbe 0f85 ed3e
00000010: bff0 c3bd 007a 31bf 9e70 ebbe 0bec 44bf
00000020: a826 903f b6d4 d53e 47a5 48bf e330 ff3e
00000030: d79c b7be 3f47 6e3e 141d a33f 0753 813f
00000040: 039a e13e 50b6 b9be 6045 61bf c030 cf3e
00000050: 1079 69bf 5fc4 83bf e89b 60be 2507 95bf
00000060: a10a 1c3e 6a30 1d3e 631a 1e3f cb61 d73e
00000070: 2e94 883e 94af 063f 1709 963e 7eca bd3c
00000080: b713 523f 8dab 9d3e dfca b83a af39 5fbf
00000090: 06ce df3e 7755 03bd 49b6 9b3e 8074 0abf
000000a0: 9b23 b6bd 1b1c 25bf dda4 063f 447a 8b3f
000000b0: a34d 9b3f b4a7 5dbf c95f 50be 229a ce3e
000000c0: 11bd c53e b4e3 983e 8451 1fbf 7902 6bbe
000000d0: 9fdc 163e c67a 493e fbcd 233f 7570 ebbe
000000e0: deb9 863e 8c34 34bf 810c 1f3f 0181 303f
000000f0: bd51 bfbe 221b 09bf 6d2f 39be 96c1 4d3f
-0.33209375 -0.30968684 -0.30624208 0.46390578 -0.09567403 -0.6932678 -0.45984358 -0.76922673
1.1261797 0.41763848 -0.78377193 0.49841985 -0.35861847 0.23269366 1.2743249 1.0103463
0.44062814 -0.36271906 -0.8799648 0.4046688 -0.9120035 -1.0294303 -0.21934474 -1.1642805
0.1523843 0.153505 0.6175901 0.42066798 0.26675552 0.5261166 0.2930381 0.023167845
0.8206133 0.30794945 0.0014098546 -0.87197393 0.4371187 -0.032063928 0.3041251 -0.54084015
-0.0889351 -0.6449601 0.5259531 1.0896688 1.2133068 -0.8658402 -0.20349039 0.4035197
0.3862081 0.29861224 -0.6223376 -0.22950162 0.14732598 0.1967574 0.63986176 -0.45984235
0.2631368 -0.7039268 0.62128454 0.68946844 -0.3736705 -0.53557026 -0.18084498 0.80373514

critic.2.weight f4 [64, 64]
00000000: f60a a8be 9357 54be 2c15 9fbc b053 a03e
00000010: 56ab 953d c61b 013e a777 f2be 7e73 f03d
00000020: 38bd 0fbe f42d f83c eaf9 a7be 8f15 c93d
00000030: f488 99be b2d1 513e 8cc1 f7be ee23 e5be
00000040: d370 80be 9bed 083d e85b b43e e6b0 36be
00000050: c508 4ebe d198 41bd 700a 513e 7a58 93be
00000060: 7085 193d 4525 7f3d 35d7 f73e 0bbe 90be
00000070: fdfb cb3b 3691 e9bd abfc 3ebe 6c31 04be
00000080: 5647 523e 9214 5b3e 9ada 7b3d d0e2 c1bc
00000090: d7e1 6bbc 3d2b 833d c1eb 92be 3839 6ebe
000000a0: bd0f fabb 0694 4fbd ffff 013e 208a 383b
000000b0: 1ba0 883e 7c80 40bc bdcc 98bd 2d6e 4c3d
000000c0: 464d da3d 5bc8 653d 8742 283c 37e6 03be
000000d0: eb8d 03be 6a1b 81bc c704 f1be 5081 be3e
000000e0: 7b32 32be d4f5 54be 3e72 17be c1d1 18bd
000000f0: 91c2 f6bc b300 9bbe 390e c63d 0ba1 993e
00000100: 0c94 c23d dc29 993e 1e46 a6bd bec0 25be
00000110: de11 e83d e484 cc3c 0b45 443e 0797 633e
00000120: c682 fb3e 1056 123f 2c1f 75bd aa50 bf3d
00000130: 4043 ccbd 4725 963e f58e 813e e119 ac3e
00000140: bac9 963d 8590 913e eef3 29bd 6d24 0fbd
00000150: 03f2 b83d d62f e9bd ccee 38be f844 3bbf
00000160: 072f 38be cc9d af3e 22a0 963e bb7d a2bd
00000170: 19cf a3be e56e 13be cc54 3d3e 17c6 cebc
00000180: b41a 86be 6c3b 893d eb3b 3cbc d4e0 1bbf
00000190: 6334 bb3e ae69 f33d 68d2 e4be a93d acbd
000001a0: 403a 583e 1a94 07be df38 41bd 41ae 86bd
000001b0: 0913 7f3e bc50 a4be 3cfa e0bd 2cd0 97ba
000001c0: b225 a63a 58b9 183e 9de7 f7be 0764 9e3d
000001d0: 3cb7 633e d3d2 4d3e 1534 dbbd f294 7a3e
000001e0: bd73 91bc 8c23 673e 6ce7 8e3e 18fe 833d
000001f0: fcc9 57be 0451 edbd 7132 513e 6107 61be
00000200: c230 c93e ccd9 f7bd cfa1 41be 974a bcbe
00000210: 9c66 d4bb 2551 7d3d f6f1 d13e 5e53 9bbd
00000220: 66c3 0fbf a8d6 ca3d 0f90 393e 71b1 94be
00000230: 6c34 893c 64a5 51bd cdbc a7be 9ecb d1be
00000240: 4e44 a63e 5615 393e afdc 523e 855e 08bd
00000250: b58f 173e 8351 de3e 54b9 4abe b8d1 e7bb
00000260: b07c 3dbe b66e d83d 6545 3cbe 6911 99bd
00000270: b7b5 bebe f94b 6c3e 74c0 2e3e ce28 113f
00000280: 87a9 f43d 9806 c93e 6564 263d 224d fc3d
00000290: 5915 133e 5103 0e3e 6df0 06bc 50b3 aa3e
000002a0: df9c 5b3e a7d6 d83e 1c24 d3bd e4c7 8a3d
000002b0: afb7 aabe d475 a03e a95a f4bd 2a75 223e
000002c0: 1bec 5d3e 0541 e43d 3cb7 ee3d 2c83 1bbd
000002d0: e206 1abd 5157 943d 07e6 b5bc f306 e6bc
000002e0: d447 8f3e fcd1 4f3e c39b 11bf f37f 9ebe
000002f0: 920d c03e 6c7e 9c3e e2c9 ea3c 155e 22be
00000300: 2b43 44be ba93 963e 72e5 b7bc 81f8 8b3e
00000310: dd17 e83c b38e 633b f26e 2cbd 33ad ad3e
00000320: c750 b6be cf12 cf3e 9200 69be 9ca4 423e
00000330: 2177 c4bd 4ef3 543e e08a cf3e 313b 9a3d
00000340: 6aa4 83be 1cc5 d4bc 2b08 bc3e 12d4 003e
00000350: 7e81 c5be 83e6 9b3c 2f1e dd3e f62f fa3d
00000360: 6bfb 753e badf a2bb 3d98 953e f489 a4bd
00000370: ead6 7b3e 7000 80be 565c 613c b74f 933d
00000380: 2c5f 83be 5414 693e 1f3d b13d e074 a1be
00000390: 8bad c4bd b7ab 6abe 6e78 56bc d736 86bd
000003a0: 323c 08bf 2fae 4cbe 08c7 d43d baf3 d7bd
000003b0: 0e79 24be bcb3 96be c45d fbbe df77 773d
000003c0: 3c85 a43d d490 263f 3f08 743d fef8 923e
000003d0: 1de2 fd3d 36c5 86be 9bf1 81be a379 51be
000003e0: 8181 23bd ace6 aebe d939 9e3e 0b7d 58be
000003f0: 8802 babd 9d31 423e ddbc 56bd 8a2e f63c
-0.32820863 -0.20736532 -0.019419275 0.31313848 0.0730807 0.12608251 -0.47356912 0.117407784
-0.14037025 0.03029535 -0.32807857 0.09818565 -0.299873 0.20490149 -0.48389852 -0.44753975
-0.25086078 0.033429723 0.3522637 -0.17840919 -0.20120533 -0.047264878 0.20414138 -0.2877844
0.03748077 0.062291402 0.48406377 -0.2826999 0.0062251077 -0.1140465 -0.18651073 -0.12909478
0.20535025 0.21394566 0.06148777 -0.023667723 -0.014397106 0.064047314 -0.2869549 -0.23264015
-0.0076312707 -0.050678276 0.12695311 0.00281585 0.2668465 -0.011749383 -0.07460926 0.04990976
0.1065927 0.056099277 0.010269768 -0.12880789 -0.12847106 -0.015760142 -0.47073957 0.37208033
-0.1740207 -0.20796901 -0.14789674 -0.037309412 -0.030122073 -0.3027397 0.096706815 0.3000568
0.09500894 0.2991475 -0.081188425 -0.16186807 0.11331533 0.024965711 0.19166963 0.22225581
0.4912321 0.5716257 -0.05984418 0.09341557 -0.099737644 0.29325315 0.2530438 0.33613494
0.07362695 0.28430572 -0.041492395 -0.034946848 0.09030535 -0.11386077 -0.18059844 -0.7315211
-0.1798669 0.34300077 0.29419047 -0.079341374 -0.3199394 -0.14397772 0.18489379 -0.025240941
-0.26192248 0.06700787 -0.011488895 -0.60889935 0.36563405 0.11885391 -0.44691777 -0.08410198
0.2111597 -0.1324009 -0.047173377 -0.06576205 0.24909605 -0.32092845 -0.109852284 -0.0011582426
0.0012676029 0.14914453 -0.48418894 0.077339225 0.22237867 0.20099954 -0.10703293 0.2447088
-0.017755384 0.22572154 0.27910936 0.06444949 -0.21073145 -0.11587718 0.20429398 -0.21975471
0.39295012 -0.12102088 -0.18909381 -0.36775658 -0.0064819586 0.061844964 0.41004914 -0.075842604
-0.5615753 0.09904224 0.1812136 -0.29041627 0.01674863 -0.05118312 -0.3276123 -0.4097566
0.32473987 0.18074545 0.20591997 -0.033293266 0.14800914 0.43421564 -0.1979726 -0.007074561
-0.18504596 0.105679914 -0.18385847 -0.07474024 -0.37248012 0.23075856 0.17065603 0.5670289
0.11946397 0.39262843 0.040623087 0.123193994 0.14363612 0.13868453 -0.008236033 0.3333993
0.2144656 0.42351267 -0.10309622 0.06776407 -0.33343264 0.31339896 -0.119313546 0.15865007
0.21672098 0.11145214 0.11656043 -0.037966892 -0.03760422 0.07243217 -0.022204412 -0.028079486
0.27984488 0.20294946 -0.568783 -0.30956993 0.37510353 0.30565202 0.028660718 -0.15856202
-0.19166248 0.2940958 -0.022448275 0.2733803 0.028331691 0.0034722507 -0.042097993 0.33921203
-0.35608503 0.40444037 -0.22754124 0.19008106 -0.095930345 0.20795938 0.4053564 0.07530821
-0.25711375 -0.025972895 0.36724982 0.12580898 -0.38575357 0.019030815 0.4318709 0.12216179
0.2402169 -0.004970518 0.2921771 -0.08034125 0.24593702 -0.25000334 0.013754925 0.07192939
-0.25658548 0.22761661 0.08654236 -0.3153448 -0.09603413 -0.22917067 -0.013090236 -0.065534286
-0.5321685 -0.19988321 0.10389525 -0.10544534 -0.16061804 -0.29434 -0.49094975 0.060417052
0.08033225 0.6506474 0.059578177 0.2870559 0.12396643 -0.26322335 -0.25379643 -0.20456557
-0.039918426 -0.34160364 0.3090351 -0.2114145 -0.09082514 0.18964238 -0.052426208 0.030051488

critic.2.bias f4 [64]
00000000: 8e36 e5be 814f 3a3f 65e1 2bbf 319b a83e
00000010: 0790 023f ea82 8dbe b9c5 0dbf 477a ffbd
00000020: 6745 b9bd 370e d23e 97bb ac3e 4dc1 0dbf
00000030: cc01 97be bd5e d9be cd60 7c3e 8a6b 79be
00000040: 20db b53e 5315 b63e 18d8 14bf b593 1abf
00000050: ba9b 4abf 42c1 1d3f 61a8 1bbe 5e2d a5bd
00000060: 0ae7 2bbf 6e9b 93be a301 16bf 7519 b33e
00000070: 1df2 b0be 0203 18bf 6c95 95bd 2ac0 b63e
00000080: ecf5 5f3d 5115 8ebe c133 113f 4ec2 b7bd
00000090: c6dc 993e 46ff 0cbf 23a1 903e 2640 193f
000000a0: 9ac3 11bf b161 b6be 28f2 0f3f f87f c83e
000000b0: 4a17 85be f099 23bf 15f9 083f ac85 8ebe
000000c0: 677a f5be f4e7 da3e e8d1 16be e5b5 1d3f
000000d0: 93ad a43e 13b9 04bf 7c76 fe3e d548 b6be
000000e0: c7af 5b3e 37c3 213e 7128 c13e 8839 00bf
000000f0: 0a98 633d 8a91 a3be f956 0f3d d77f 23bf
-0.44768184 0.72777563 -0.671408 0.32930902 0.5100102 -0.27638942 -0.55379826 -0.124744944
-0.090464406 0.4102647 0.3373687 -0.5537308 -0.29493558 -0.42455092 0.24646302 -0.24357429
0.35518742 0.35563144 -0.5814223 -0.60381633 -0.7914387 0.61623013 -0.1520095 -0.08065294
-0.6714941 -0.2882952 -0.5859625 0.3498036 -0.34559718 -0.5937959 -0.073038906 0.35693485
0.05467789 -0.27750638 0.56719595 -0.089726076 0.3005125 -0.55077016 0.28247938 0.5986351
-0.5693909 -0.35621408 0.56228876 0.39160132 -0.2599433 -0.63906765 0.5350507 -0.2783636
-0.47944948 0.4275509 -0.1472851 0.61605674 0.32163677 -0.518449 0.4969977 -0.3560244
0.21453772 0.15797125 0.37726167 -0.50087786 0.055564918 -0.31946975 0.034995053 -0.63866943

critic.4.weight f4 [1, 64]
00000000: 5257 91bd 5772 213d 478d 05be 82d6 0c3d
00000010: 3120 9b3d bbfc 63bd 7f57 70bd ef95 48bd
00000020: 1a60 6abd a00c 483d 5341 183d 220c babd
00000030: cd1e 4dbd beea ecbd 5e00 423d 5a26 69bd
00000040: 5686 6d3d 4aea 883d 2c52 93bd 6c29 cbbd
00000050: c080 24bd 9ad3 8b3d 9f87 ffbc faeb b13c
00000060: 58a5 46bd 8820 acbd 4aa7 85bd 1a18 303d
00000070: bec4 0b3d 1db6 a7bd 305f 08bd 3a0f 033d
00000080: 2759 423d bf5a 26bd d409 933d bd46 67bd
00000090: a8a6 033d 74b4 4dbd d32c 8f3d a74a b33d
000000a0: 349b 46bd 32bb 61bd 289f ab3d 3e0b 883d
000000b0: a42a 29bd caf8 a7bd 6a04 c43c d82e 08bd
000000c0: 6a26 25bd 98d1 213d 4319 533b dddc be3d
000000d0: d8f8 963d 873a 383d 0816 243d e917 99bd
000000e0: d453 803c ae86 9d3d cecf 973d 2ea0 31bd
000000f0: 37e8 843d 33f4 76bd 9089 99bd 8bbe 0abe
-0.07096733 0.039415684 -0.13042174 0.034384258 0.075744994 -0.055660944 -0.058677193 -0.048971113
-0.057220556 0.048840165 0.037171673 -0.090843454 -0.050078202 -0.11568211 0.04736363 -0.05692134
0.05798944 0.06685312 -0.071934074 -0.0992001 -0.040161848 0.06827469 -0.031192599 0.021718968
-0.048497528 -0.08404642 -0.065260485 0.042991735 0.034123175 -0.08189032 -0.033293903 0.031996943
0.047448304 -0.040613886 0.07179609 -0.056463946 0.032141358 -0.05022092 0.069909714 0.08754473
-0.048487857 -0.055110164 0.08379966 0.06642769 -0.04130043 -0.082017496 0.023927886 -0.0332478
-0.040319838 0.039506525 0.0032211102 0.0931947 0.07371682 0.04497769 0.040060073 -0.074752636
0.015664972 0.07691704 0.074126825 -0.04336565 0.06489604 -0.06029148 -0.07496941 -0.13549249

actor_mean.0.weight f4 [64, 153]
00000000: 8e23 25bf 8281 8c3e e390 513d 42b5 fbbe
00000010: ecf2 a5be 64e5 e23c d612 ed3c 475e 393e
00000020: 1a73 963c d56d eb3d 02ef cd3d 322d 60bc
00000030: 386d 68bd 00f3 acbd 38c3 06be 7c30 6ebe
00000040: 264a cb3d fa2f 403d 5143 c83d d0a5 13be
00000050: f1e6 f5bb d800 dbbe b413 ab3e a93d 013e
00000060: 0feb d5bd 9c99 983c b81f 973d 68c6 38be
00000070: 1bcd e3bd 2773 8ebd 6248 5fbe 7d8b b1bd
00000080: d2af 4b3d 7d83 503c ed7e 06be ecd8 533d
00000090: 8503 203e ce0f a03d 1f08 9d3d a246 3c3d
000000a0: 9d23 9a3d cf47 71bd e189 b9be 818e 323c
000000b0: 0299 fcbd ce04 233d 423f 4a3e a855 3cbc
000000c0: fdcf eabd a3d4 17be 787c 8bbd 6f93 693e
000000d0: 1edb 883d 6a1a 8ebc f2df 0a3e da0a a63c
000000e0: 03a6 98bc d556 093e 7d1d b8bd 9bc3 1bbf
000000f0: 78a5 1f3e 38ce 693e 2769 0d3f b944 9cbd
00000100: 1fef 3d3c db1a a7bd e8c3 fb3e bf28 663c
00000110: e036 99bc abc7 c5bc 6e14 f1bc ee81 4fbf
00000120: 8a92 d3bc 881b 0cbc f02c ecbe cc9c 64be
00000130: 3273 d93d 342d 9f3d bafb 90be 4415 01be
00000140: 5887 a3bd 2968 473d cc58 dabd f326 09bc
00000150: 7f41 bf3d dbfe ac3c e50f 143d 1b4f 69be
00000160: 053f fabd d080 453c 310e cabd 8c76 89bd
00000170: a0da 073d 9bec 22bd bc83 dc3d 24bd 34bd
00000180: 582d 19be 459e 9d3e c310 5c3d 39b1 b2be
00000190: 6668 e0be e906 07be 2934 b8bd e8b5 8fbd
000001a0: 80ab e4be be71 b83e 55d8 2d38 4fa3 b3be
000001b0: 3c02 8bbe a1b3 07be baa1 1cbd 7262 0ebe
000001c0: b940 01be 8f80 bd3b f422 603b 1fc0 a93e
000001d0: 44c5 013f e60c 313e ffea c0be 0f07 e63d
000001e0: 7c4a 2ebd 527c 58bc d7c1 063e bdd4 81be
000001f0: 8c6f e23e dd95 e23d a9ce efbe 7a26 95be
00000200: 0576 703e a076 843e bbe9 e93d 802c bebe
00000210: 106d d5ba ddd9 83be 21b6 37be 3aed 8cbd
00000220: 8dfa 583e ab7a 9abd 287c e2bd 02c1 a83d
00000230: 6a49 86be fccb 663d 04cf af3e 51f2 40be
00000240: 46b2 f8be 6ee2 4abd bdf1 b13e e297 063e
00000250: 21f6 c8be cbee 80bd bd47 243c 63ad bcbc
00000260: 82bc 3e3e f39c a33d 9427 723e 1234 89be
00000270: 842f 2d3e 0ddc 0fbd a631 b83c 2c0d 203e
00000280: 1c2f 9f3d 3b35 f5bd 3e41 b03b 4720 353e
00000290: ef1e f03d cf6a b9be 2c85 31bd 5744 b9bd
000002a0: 7e34 1fbe 541a 3abe bc48 1bbd 9c3e 363d
000002b0: 389c 523d 68d4 98bd 2c87 23bb 1e5e 563e
000002c0: f793 c53d 6a35 f6bc d54b 2f3d ceff 5cbe
000002d0: a704 193a d673 0b3e 8f23 49be 6c45 1cbe
000002e0: e304 48bc abec 013e e080 86bd d15b 2fbd
000002f0: 6764 1a3d 07c9 4fbc e816 f43c 10d4 1dbe
00000300: e215 193d 9b13 12be a57d e8bd 366a 02be
00000310: e687 aebc 773e 1dbc b857 293d 4f6b 9abb
00000320: aaa7 423e 1ef5 273e 3ae5 663d 937d 573d
00000330: b379 273e c20b ce3d 5700 2a3e d7c4 dd3d
00000340: 83ba dd3d d129 bdbd 99ab 3e3d 66cf 22be
00000350: 03bf e63d cd50 123d 07bb c4bb 6a2c 633c
00000360: 5cfe 623d 52e1 183d df03 c43c 838a 5a3e
00000370: 4a4e 923d 1cc5 313d fbf2 e3bd 050e 5cbd
00000380: 6071 a03e 04f8 563d 811b 003e 098f 7d3e
00000390: 2122 683d a76f 243d 80f1 c1bd 9931 2f3e
000003a0: 95c2 b53c 7005 ba3d 059f bf3d 40b0 1c3e
000003b0: 93b6 9d3e 8770 b23d 0dba f43d dfec 2a3e
000003c0: c742 08be 9b3c 8e3d 50bf 3dbe fa90 083e
000003d0: bd28 453e ca65 873d 9336 e33d 3ad4 38be
000003e0: ca10 0e3e 08dc a9bc 1394 dfbd 59ab 53be
000003f0: f074 313e 3c1c be3c dd29 063e 46b4 cd3c
-0.6450738 0.27442557 0.051163565 -0.49161726 -0.32411897 0.027697273 0.028939646 0.1810237
0.018365432 0.11495558 0.10055353 -0.01368265 -0.056744784 -0.08444786 -0.13160408 -0.23260683
0.09926252 0.046920754 0.097784646 -0.14418721 -0.007504337 -0.4277408 0.3341347 0.12621178
-0.104452245 0.018627934 0.07379097 -0.18044436 -0.11123105 -0.06955557 -0.21804956 -0.086691834
0.049728222 0.012726662 -0.13134356 0.051720545 0.15626343 0.078155145 0.076675646 0.0459658
0.07526324 -0.058906373 -0.36238006 0.010898233 -0.123338714 0.039799504 0.19750693 -0.011495031
-0.11465452 -0.14827208 -0.0681085 0.22810148 0.06682418 -0.01734658 0.13561991 0.020268846
-0.018633848 0.1341203 -0.089899994 -0.60845345 0.15590465 0.22832572 0.55238575 -0.07630295
0.011592655 -0.08159419 0.49172902 0.014047801 -0.018702924 -0.02414306 -0.029428687 -0.8105763
-0.025826711 -0.008551486 -0.46128035 -0.22325438 0.10617675 0.07772294 -0.28317052 -0.12605768
-0.07984799 0.04868332 -0.10661468 -0.008371103 0.09338664 0.021117618 0.03614797 -0.22784083
-0.12219051 0.012054637 -0.09865988 -0.06712064 0.03316748 -0.039776426 0.10767314 -0.04412569
-0.14958704 0.30784813 0.053726923 -0.34900835 -0.4382965 -0.1318623 -0.08994324 -0.07017118
-0.44662094 0.36024278 4.144789e-05 -0.35085532 -0.27150142 -0.13252117 -0.038240172 -0.13904741
-0.12622346 0.0057831476 0.0034200521 0.3315439 0.5069163 0.17290077 -0.37679288 0.11231815
-0.042551503 -0.013213234 0.13159882 -0.2535762 0.4422573 0.110637404 -0.46837357 -0.29130918
0.23482521 0.25871754 0.11421534 -0.37143326 -0.0016283114 -0.25752154 -0.1794057 -0.06881185
0.21189328 -0.07542928 -0.11058837 0.08239938 -0.26227885 0.05634688 0.34337628 -0.18842436
-0.48573512 -0.049532346 0.34754744 0.13143876 -0.3925028 -0.06295546 0.010026869 -0.023031896
0.18626598 0.0798892 0.2364791 -0.2679754 0.16912657 -0.035121966 0.022484612 0.15630025
0.07772657 -0.119730435 0.005378871 0.17688094 0.1172465 -0.362143 -0.043339893 -0.09046238
-0.15547368 -0.18174106 -0.03791116 0.044493303 0.051418513 -0.07462388 -0.0024952395 0.2093434
0.09647363 -0.030054767 0.04279693 -0.21581957 0.000583718 0.13618407 -0.19642471 -0.15260857
-0.012208196 0.12687938 -0.0656755 -0.042812172 0.037693407 -0.012682206 0.029796079 -0.15412927
0.037374385 -0.14265291 -0.1135209 -0.12735829 -0.021305036 -0.009597412 0.04134342 -0.004712499
0.19009271 0.16402099 0.05637095 0.05260999 0.16355018 0.100608364 0.16601692 0.1082856
0.1082659 -0.092364915 0.046550367 -0.15899429 0.11266901 0.03572159 -0.0060037407 0.01386557
0.055418357 0.037324257 0.023927627 0.213419 0.07143839 0.04340087 -0.11130329 -0.053724308
0.31336498 0.05248262 0.12510492 0.24761595 0.056673173 0.040145542 -0.094698906 0.17108764
0.02218751 0.09083068 0.093565024 0.15301609 0.30803356 0.08712869 0.11949549 0.16691922
-0.13306724 0.06945153 -0.18530011 0.13336554 0.19253822 0.066112116 0.110943936 -0.18049708
0.13873592 -0.020734802 -0.10916915 -0.20670833 0.17329764 0.023206823 0.13101907 0.025110375

actor_mean.0.bias f4 [64]
00000000: 69dd 8abb 3453 413e 1a2b da3d 23b4 a23e
00000010: 7d2e 62be 5fdf 33be 3966 09bd a09d 8fbe
00000020: 3b04 5ebe 55c3 4b3f c32b 203e baf6 4fbe
00000030: 2506 dd3e 1d47 b4bd f72e e6be 127d b73d
00000040: 58a0 003d 7d34 103f 2ff1 aabe 15d6 96bd
00000050: a423 ac3d eeea f7be 9ccd 873e dd5e f13e
00000060: 0dab ddbd d235 e23d 058e 803e 3200 1c3e
00000070: d6e1 9bbe 94bc 3fbd f21c 9abc 62c7 2c3e
00000080: 89e6 b8be 599f 203e 8334 493e 568d f33e
00000090: bd6a da3e 4d29 f5bc 6f36 04bf 68c2 f9be
000000a0: dac2 673e 18de 65be 0d4c c8be 4d91 86be
000000b0: 1b3f 043e 85e8 b93d 4bae 98be ce09 753e
000000c0: adda 0abf 0c74 3f3d 39a1 a63e 9a08 90bc
000000d0: 06d8 b3bc e6a6 2a3e d8ad 003f 4738 2d3e
000000e0: c137 c5be 7ac6 33be ed23 103e 786e e13e
000000f0: 2196 9d3b c3ad b13d 95ce 25bd fee5 1bbe
-0.00423782 0.18879396 0.10652752 0.31778058 -0.22088046 -0.17565678 -0.033544753 -0.28049946
-0.21681301 0.7959493 0.15641694 -0.20308962 0.4316875 -0.08802626 -0.44957706 0.08959402
0.031402916 0.5633009 -0.33387133 -0.07365052 0.084052354 -0.48421425 0.26524055 0.47142687
-0.10823641 0.11045422 0.25108352 0.1523445 -0.30445737 -0.0468107 -0.01881263 0.16872934
-0.36113384 0.15685786 0.19648938 0.47568768 0.4265956 -0.02992692 -0.5164556 -0.48781133
0.22632924 -0.22448003 -0.39120522 -0.2628273 0.12914698 0.09077553 -0.29820475 0.23929521
-0.5423992 0.04674153 0.32544878 -0.017582227 -0.021953594 0.16665229 0.50265265 0.16916
-0.385191 -0.17556182 0.14076205 0.44029593 0.0048091565 0.086757205 -0.040480215 -0.15224454

actor_mean.2.weight f4 [64, 64]
00000000: 6545 f7be b2b8 a3be 2373 27be d49d 3ebf
00000010: 938b a7be 496c 1e3e 8d3f 6dbe 7117 d83d
00000020: 16e0 e43d 0f2f 563e ca70 51bf d413 0fb9
00000030: f005 e53e 285e 1cbf 4c25 19be b3c2 033d
00000040: d3b5 053e 1aea 0a3f 7693 5dbd ea18 463d
00000050: 1e91 203f cd89 afbe 5714 be3d b9ea c03d
00000060: 2408 86be 918e 1dbd 853b b23d de8e bc3e
00000070: 5e01 37be f731 283e 2d7e 153e a1dd 9d3e
00000080: ff2c 753d 0bfb 62be 0467 013f 1f8f 2bbf
00000090: 92e4 8a3e ebf5 e7be 8220 9f3e 3bd8 913e
000000a0: e71e 06bf 563d 0f3f 8710 bb3e dd87 8d3e
000000b0: 6be5 f73d 2f33 bfbe 29b7 84be f11e 043e
000000c0: e418 d6be 7738 433e 26a7 883e 97cb 5cbe
000000d0: d085 4ebe e58a 98bd 644a cc3e f63c cc3e
000000e0: e4ed 283f 2f73 da3e ca72 3bbd eb78 303f
000000f0: eec9 213d f1b8 db3e 5efd 90bd 396b d6be
00000100: 66f0 0d3f f39f 1abf 8e01 f73e 89a2 35bf
00000110: 414f 853c 1c0a 353c 1ad0 e03e 1a10 1dbe
00000120: 25eb 043e 1089 f93e 10a0 0cbd d40d d6be
00000130: f31f 92be 0642 8fbe 91c4 41be 608e 493e
00000140: 569c 973e 202f 543e 45d2 8f3e c898 4b3e
00000150: 5104 f13d 9b37 363e 3a09 7abd 1384 813e
00000160: 5eab e43e 98a8 cd3e 499e b3be da8d 99bd
00000170: 3d6c 323e 73a5 90be 3713 093d bb24 bfbe
00000180: 9cf3 333e cfae b33e 81e0 b3be a0e6 0a3d
00000190: d19a 96be 184a 823c eae5 4e3e 4923 af3c
000001a0: 0469 a93e 0e85 8c3d e18d 98be 68dd 39be
000001b0: 820a 953d b38c 45be 353e e0be 4fd3 4d3e
000001c0: 0e12 16bf 5604 bc3e 61ec 46bf 7657 4fbd
000001d0: cc5a ae3e cdda b8be 0de0 e83d 7c47 173e
000001e0: 52a0 22bf 85b4 90be 333a aa3e 31a4 493e
000001f0: 0b01 8dbe dc8f 783d b540 a73e b9dd 833f
00000200: e8e1 16bf a3a4 e53e ab99 f3bd e1f6 0e3d
00000210: 141e 23bd b7c6 833d 0487 84be 8309 0cbf
00000220: 4774 33be 036e 9d3d 0bd0 b0be 7e31 013d
00000230: c888 013f c3ad d03e 2b99 9bbe 436f 1e3d
00000240: 6e06 7c3e e4d3 113f 5cd5 0abf 675e a3bc
00000250: f765 1abe 3ea5 e83a 42ed e0bd 6d1e 0a3e
00000260: 6fb0 e8bb cc6a a03d e619 de3c 7aad b53e
00000270: 8e34 38be 204e 19bd bbe5 be3d 6d05 bd3e
00000280: c178 49bc dcac c2be a903 093f 8597 3ebc
00000290: e7e2 913e f167 543c 24bf 0cbf 169e a8be
000002a0: 622c 9e3e 0588 40be 86dd ca3e e4aa cebe
000002b0: 83d1 f3bd 8c04 3f3e beee 1ebf fffd 223f
000002c0: 0db9 c8bb 9380 a4be 64f0 18be f672 89be
000002d0: d3cd 9dbe c13a 543e d200 ed3e 6aff 463f
000002e0: a185 49be 98c8 23be 537c eb3d 21ac 653e
000002f0: aa97 983e 759a 223e 5bad 10bd 1b8a ccbe
00000300: cc3b 05be a309 7cbe e1c6 2ebf 8bca 0f3e
00000310: 0b4e 84be f564 02be 082a 03be 3401 8fbd
00000320: 1e58 333e 7d5e 103d bcfa 50be fb10 04be
00000330: 29e8 243e 558c a8be 289b 4f3e 1f14 b63e
00000340: a2e6 3cbf c748 20bf 64b7 65be 6d7c 8ebd
00000350: 9a0d 903e 52a2 8bbe dd7d fbbd ea82 87be
00000360: 6a8a 48be 4fcf 3a3f 2baf 0d3f 0977 143e
00000370: 6f1a 5f3e ac8a 063e d957 6abe da8c 703e
00000380: 9b4f 84bd 333f 7dbe 36ce 863e 5c64 7dbd
00000390: c2e7 983b 0878 f43e e5a6 b5be 6c86 913e
000003a0: aeb9 77bc 8052 883e 6cd6 1a3f dea9 9e3e
000003b0: 2ecd 223f dfbb 233f 48a0 ad3e e58c c1be
000003c0: 5410 123d 78ce d2be 8499 8dbc 281f a6bd
000003d0: 41b3 d2be 1c85 963e ca3a 5f3e d4cb 2dbe
000003e0: 7948 9d3e c2fe b33e 837f 493e 1f80 77bc
000003f0: 34cb 113e a1fe 1f3f 455f 903e b0f6 973e
-0.4829513 -0.3197685 -0.16352515 -0.74459577 -0.32723674 0.15470995 -0.23168774 0.10551346
0.111755535 0.20916389 -0.8181273 -0.0001364493 0.44731092 -0.6108117 -0.14955634 0.0321681
0.13057642 0.5426346 -0.054095708 0.048363604 0.6272143 -0.3428482 0.09281223 0.0941977
-0.26178086 -0.03846604 0.08702759 0.3682775 -0.17871615 0.1642531 0.14598913 0.30833152
0.059857365 -0.22166078 0.50547814 -0.6701526 0.2712751 -0.45304808 0.3107949 0.28485283
-0.52390903 0.55952966 0.36536047 0.27642718 0.12104305 -0.37343737 -0.2592099 0.12902428
-0.41815865 0.19064508 0.26690024 -0.21562038 -0.20168233 -0.07448367 0.39900506 0.3989026
0.6598799 0.42666003 -0.04576377 0.68934506 0.039499216 0.42914537 -0.07079576 -0.4187868
0.55444944 -0.60400313 0.48243374 -0.70951134 0.016273143 0.011049774 0.4390877 -0.15338174
0.12980326 0.48737383 -0.034332335 -0.41807425 -0.2854 -0.2798006 -0.1892264 0.19683218
0.29611462 0.20721102 0.2809011 0.198825 0.117684014 0.1779465 -0.061043955 0.25296077
0.44661993 0.4016769 -0.350817 -0.07497759 0.17424102 -0.28251228 0.03346559 -0.3733271
0.17573398 0.35094306 -0.3513222 0.033911347 -0.2941499 0.015904471 0.20204893 0.02137913
0.33087933 0.06861316 -0.29795745 -0.18150866 0.07277395 -0.19291954 -0.4379746 0.20100139
-0.586213 0.36722058 -0.77704436 -0.05062052 0.34053648 -0.36104432 0.11370859 0.14773363
-0.6352588 -0.28262725 0.33247527 0.1969154 -0.27539858 0.06068407 0.32666555 1.0302039
-0.58938456 0.4485217 -0.11894544 0.03490341 -0.039823607 0.06434386 -0.2588426 -0.54702014
-0.17524825 0.07686999 -0.34533724 0.03154134 0.50599337 0.4075757 -0.30390295 0.038680326
0.24611828 0.56963944 -0.5423181 -0.019942475 -0.15077959 0.0017749441 -0.10982753 0.13488169
-0.0071011106 0.0783287 0.027111959 0.35483915 -0.17988798 -0.03742802 0.09321161 0.36918202
-0.012296856 -0.38022506 0.5352121 -0.011632805 0.28493425 0.012964235 -0.5497916 -0.3293311
0.30893236 -0.18801887 0.39622134 -0.40364754 -0.119051956 0.18654078 -0.6208304 0.6366882
-0.0061255754 -0.32129344 -0.14935452 -0.2684552 -0.30821094 0.20725538 0.46289688 0.7773348
-0.19679882 -0.15994489 0.11498322 0.22428943 0.2980321 0.15879233 -0.035321575 -0.39949116
-0.13011092 -0.24613051 -0.68272215 0.14042108 -0.25840792 -0.12733825 -0.12809002 -0.06982651
0.17514083 0.03524636 -0.20408148 -0.12897103 0.16104187 -0.32919565 0.20274031 0.35562226
-0.7378942 -0.6261105 -0.22433239 -0.06957326 0.28135377 -0.27272278 -0.12279866 -0.26467067
-0.19584051 0.7297258 0.5534541 0.14498533 0.21787427 0.13138837 -0.22885074 0.2349123
-0.06460496 -0.2473114 0.263292 -0.06186329 0.0046662996 0.47747827 -0.35478893 0.28422868
-0.015119953 0.26625443 0.6048343 0.30988973 0.6359433 0.63958544 0.33911347 -0.37802806
0.035660103 -0.41173148 -0.017285116 -0.08111411 -0.41152385 0.2939843 0.2179977 -0.16972286
0.30719355 0.35155302 0.19677548 -0.01510623 0.14237672 0.6249791 0.28197685 0.29680395

actor_mean.2.bias f4 [64]
00000000: a387 a83e 045f 033d 7db8 cf3e 1b96 17be
00000010: a1e6 853e 4fe3 56bb 22f8 c3be 25b4 3ebe
00000020: 8103 27be 6eae f43e d005 d73d 5f21 113d
00000030: 6874 57be 3c68 9a3e 55cf 23bf ac24 c7bd
00000040: 5e44 323d 0654 173e 6970 e73e 5cdd bdbe
00000050: c8b7 f3bd 187c 3ebc 762c 373e 2d30 03bf
00000060: 31cf 0bbf 7a53 e6be cee1 a73e 93c9 a13d
00000070: d4d3 13bf 8e5f 023e 8802 f5bc 9eeb a03e
00000080: 6990 52bd b155 09be 97db 06bd 1be8 5e3d
00000090: f420 b03e ebec aa3e 85d0 843e dba4 43bd
000000a0: 1def 913e 54d8 1c3e b537 763e 2fad f9be
000000b0: b008 a9be 80a4 a7be 57e0 babc a649 a7bd
000000c0: 65aa 44be 02bc 663d d2d2 4f3d 93a3 49be
000000d0: a090 a0bd ec7d ce3d 2d8f fcbc 25e9 b43c
000000e0: 18a2 63bf e20f 1d3e cb2d debe 7504 9fbe
000000f0: ce0a 17bf 6563 423e fc93 d13e 7af3 b9be
0.32915983 0.032073036 0.4057044 -0.14803354 0.26152518 -0.0032789295 -0.38275248 -0.18623407
-0.1630993 0.4778933 0.104991555 0.035432216 -0.21040499 0.3015765 -0.6398824 -0.097237915
0.04352223 0.14778146 0.4520295 -0.37082946 -0.11900288 -0.011626266 0.17888054 -0.51245385
-0.54613024 -0.44985563 0.32789463 0.07899775 -0.577451 0.12731764 -0.029908434 0.31429762
-0.05140725 -0.13411595 -0.03292426 0.05442057 0.3440014 0.3338388 0.25940338 -0.04776464
0.2850274 0.15316898 0.24044688 -0.4876494 -0.3301444 -0.3274269 -0.022812052 -0.08168344
-0.19205625 0.056331642 0.050738163 -0.19691305 -0.07840085 0.100826114 -0.03082999 0.022083828
-0.8891921 0.1533809 -0.43394312 -0.31058088 -0.5900086 0.18983229 0.40933216 -0.3631857

actor_mean.4.weight f4 [8, 64]
00000000: 35ef 633f d441 b3be 270e 9c3f 2f88 00bf
00000010: 8032 9a3f bb07 7bbc cc7f c9bf dc1d 43be
00000020: d499 61be 9332 6d3f b376 c93d 4e5c fc3e
00000030: 3382 623e f9c4 2f3e cf7e 11c0 9e07 7b3d
00000040: d950 823d 7329 4abd 1ef5 933f 76a1 00c0
00000050: 74b0 963e 1354 433e 1347 c3be 0e45 9bbf
00000060: f951 84bf 0997 03c0 eebc f53e 9511 8d3e
00000070: 0e08 e5bf d0a2 193f 75e4 6ebf dd9d 2d3f
00000080: 2bed 76be 1ec8 02bf aa1c f3be 5098 42be
00000090: 821c c23f c8a3 383f 2b24 703f ebe0 e13e
000000a0: 9366 ce3f cadc 7d3f a006 3ebe 7b7d a2bf
000000b0: e236 61bf 3e8c 65bf 1d33 b7be 45e9 ccbe
000000c0: a352 46bf 9db6 3b3f 9d31 a9bd d6b9 81bf
000000d0: bb4a b5be 32a9 19ba 6d71 dabe a38e ff3e
000000e0: 9c8a 11c0 c8fc f43e 981c 88bf 32c8 43be
000000f0: 469b a9bf b982 aa3f fd6f 0a3e 9a1a 8abf
00000100: 95c8 b93e f75f 0cc0 acf2 9fbe 8bd1 043f
00000110: 509e 85be 5fc6 7d3f 43f3 3bbf 08dd 53bd
00000120: a784 17bf 483c 99bf ac94 75be b2b3 853d
00000130: 8420 7fbe 7e16 063f d70b b23f 8820 113f
00000140: 46c8 3b3f 7101 3f3e f3b8 63bd 9e37 03bf
00000150: ca34 ac3f 8223 cabf f714 f83e 9b8e bdbc
00000160: 9caa b83e 2a1c 903f 51d0 34be 75d8 a0bf
00000170: c766 8cbe 76f3 21be af48 aebf 40a8 d3be
00000180: f947 9a3d 555a a43d 2727 ca3d 0606 a3bf
00000190: 2237 2ebe 2214 84bf 94c0 dbbe 2691 a4be
000001a0: 767b 7b3f 06ab 27be be1a 443f 5bf1 47bf
000001b0: fe2d 75be e610 2abf fa1d dd3f 6f40 c43e
000001c0: 9fdf 823f b538 f83d e77a 00bf ed4d b43f
000001d0: 7df4 683f 3a7f 693f 1933 533e f11f 1e3f
000001e0: 98d3 6a3e 61c7 6b3f bf2f c83f 0f48 6e3f
000001f0: e949 423f a8b5 a2bf 8731 01bf 7c4c 223f
00000200: bf68 31bf 97f0 80bf e48f b9bf de75 113f
00000210: 70be c5be 24b4 80bf 5a5d 013f 8e5d c63f
00000220: fb06 1a3f e02d a43e e667 003d 4a11 85be
00000230: a907 50bd 12b6 113f 66b5 fe3e f851 81be
00000240: 70b1 a4bd 933a ca3e 9cd7 ebbf 2b6f 283f
00000250: 9b06 02bd 3682 473f 0ce5 38bf 9c98 21b9
00000260: 3086 5f3f de3a 06bd 1925 b8bf dbc7 d3be
00000270: 0b4b 35be e413 13c0 8bfc 35bf aa9e 5e3e
00000280: 6570 623f be94 f93f e78e 9ebf a3ca 8e3d
00000290: e860 f8be 9717 203e 2eca 10bf 81e9 a93f
000002a0: 576e 9f3f a0a5 a13d fe97 a2bf 202f 983f
000002b0: d5a6 b63e 3fe2 ea3e 85cc 60bf 738e 6ebe
000002c0: f255 8bbf 1d97 bc3e c061 15c0 e2a8 6a3e
000002d0: 81b9 4fbd 8796 f5be a7e0 0ebf 33ce a63e
000002e0: 97b3 af3f 28de 6bbe 9d50 05bf fb14 8c3f
000002f0: 3e9d a93f 1fd8 583f 2c35 06c0 6efe b43f
00000300: cd01 1bbf 4bf3 e83d bbb5 d33d b096 613f
00000310: fe5c 163e 958c 4b3f a6cb 2d3f ff72 eebe
00000320: 2042 853f 5eca 2b3e 9fd1 ee3f 0710 c9be
00000330: e2a6 1a3f 4d7b b0bf 43a5 003e 472a 7cbf
00000340: b60b 5b3e 431b 7a3d d1cf fbbe 86be 17bf
00000350: d302 ddbf ce5f 513f d3e6 813f 3a16 19bf
00000360: 29c6 2fbe afd1 96bf fd33 73bd 1cae e23f
00000370: 3f93 97bd 625a a23e 0bf4 be3f c7b8 543f
00000380: 0f11 d0be 8e96 b53f 6a22 21bf 90d6 823f
00000390: 3df6 c03f 0fb5 653f 92a3 fabf 1e23 30bf
000003a0: 0da4 1bbe 6e8f d7be aa07 64be 24d9 d5bd
000003b0: 603b a4be 4827 343f f149 833e e02a 2bbf
000003c0: 7e02 3cbf 1215 aa3e 7ab6 b63f 853d 43bc
000003d0: 5aa1 96be ca98 fbbd ba3d 273f 82bc c93d
000003e0: 20ad 4abf edd6 653f 2847 60bf 08ee ecbe
000003f0: 1a31 0539 1341 943f 3712 ef3e f9d5 df3e
0.89036876 -0.3501116 1.2191819 -0.502078 1.2046661 -0.015321667 -1.5742126 -0.19054359
-0.22031337 0.92655295 0.09837093 0.49289173 0.2211998 0.17164983 -2.2733648 0.06128656
0.06363077 -0.049355935 1.1559179 -2.0098548 0.29431498 0.1907504 -0.38140163 -1.2130449
-1.0337516 -2.0560935 0.47995704 0.27552477 -1.7893083 0.6001406 -0.9331735 0.67819005
-0.2411391 -0.51086605 -0.47482806 -0.19003415 1.516495 0.7212491 0.9380519 0.4411691
1.6125053 0.9916502 -0.18557215 -1.2694544 -0.8797437 -0.8966712 -0.35781184 -0.4002172
-0.77469844 0.7332552 -0.08261416 -1.0134838 -0.35408577 -0.0005861699 -0.42664662 0.4991351
-2.274085 0.47849107 -1.0633726 -0.19119337 -1.3250511 1.3321143 0.13519283 -1.0789368
0.36285844 -2.1933572 -0.3123983 0.5188224 -0.26097345 0.99130815 -0.7341806 -0.051724464
-0.59186786 -1.1971521 -0.23982495 0.06528415 -0.24914747 0.5237807 1.3909863 0.56690264
0.7335247 0.18652894 -0.055596303 -0.5125674 1.345361 -1.5792086 0.48453495 -0.023139289
0.36067665 1.1258595 -0.17657591 -1.2566057 -0.27422163 -0.15815529 -1.3615931 -0.41339302
0.07533259 0.08025042 0.09870749 -1.2736213 -0.17013219 -1.0318644 -0.42920363 -0.3214199
0.9823526 -0.16373834 0.76603305 -0.78102654 -0.23943326 -0.66432035 1.7274773 0.3833041
1.0224494 0.12120191 -0.50187534 1.4086281 0.9099806 0.9120976 0.20624961 0.6176749
0.22932279 0.92101103 1.5639571 0.930787 0.7589403 -1.2711687 -0.504662 0.63397956
-0.69300455 -1.0073422 -1.4497037 0.56820476 -0.38621855 -1.0054975 0.5053307 1.5497301
0.601669 0.3206625 0.031349085 -0.25989753 -0.050788555 0.5691844 0.4974777 -0.2525785
-0.08041656 0.39497814 -1.8425174 0.6579463 -0.03174458 0.7793306 -0.722245 -0.00015411008
0.8731413 -0.032770984 -1.4386321 -0.41363415 -0.17704408 -2.298089 -0.71088475 0.21740213
0.8845275 1.9498518 -1.238736 0.06972244 -0.48511434 0.15633999 -0.565585 1.3274385
1.2455548 0.078929186 -1.2702634 1.1889381 0.35674158 0.45875737 -0.8781207 -0.23296528
-1.0885603 0.3683404 -2.3340912 0.22915986 -0.05071402 -0.47966406 -0.5581154 0.32579193
1.3726681 -0.23033965 -0.5207613 1.0943903 1.3251112 0.84704775 -2.0969954 1.4140146
-0.6054962 0.113745295 0.10337397 0.88120556 0.14683911 0.79511386 0.6788887 -0.4657211
1.0410805 0.16776416 1.8657721 -0.3927004 0.6041089 -1.3787628 0.12563042 -0.9850201
0.21391186 0.061061155 -0.4918199 -0.5927509 -1.7266487 0.8178681 1.0148567 -0.5979954
-0.17165436 -1.178274 -0.05937575 1.7709384 -0.07401132 0.31709582 1.4918226 0.8309445
-0.40638015 1.4186571 -0.62943137 1.0221729 1.5075146 0.897294 -1.9581168 -0.68803585
-0.15199299 -0.42101616 -0.22268549 -0.10441807 -0.3207655 0.7037244 0.2564235 -0.668623
-0.734413 0.332192 1.4274437 -0.011916523 -0.29419976 -0.122850016 0.6532856 0.09850408
-0.7917042 0.89781076 -0.87608576 -0.46275353 0.0001270216 1.1582359 0.46693584 0.43717936

actor_mean.4.bias f4 [8]
00000000: 3950 c03f a165 0cbf 6470 93bf 2c1a c73d
00000010: 9ae7 4c3d 9651 093e 920b 64be 905e 043e
1.5024482 -0.54842573 -1.1518674 0.09721789 0.05002556 0.13410029 -0.22270039 0.12926698
